IVF_tool/tensorflow_model.tflite (tflite, 39444 bytes, 5 tensors)

arith.constant f4 [1, 64]
000000 3f 8a c3 3d 3f dc a8 be e2 27 6c 3e 6f 1b 59 bd
       0.09547853 -0.32980534 0.23062089 -0.05300468
000010 36 65 bb 3c bb 71 08 be 7b 3c 90 3d af 62 7c 3c
       0.02287541 -0.13324635 0.07042786 0.015404387
000020 95 e4 71 3e 44 30 95 bb d2 ac b1 3b 74 7b 17 3f
       0.23622353 -0.004552873 0.005422213 0.5917275
000030 84 ea 89 be f0 82 87 3e 0f 98 cf 3e aa 51 66 3e
       -0.26936734 0.26467085 0.405457 0.2249209
000040 5f c4 4f 3e fa 31 6f 3e 12 11 cd 3c f0 5d 4a be
       0.20289753 0.23358908 0.025032554 -0.19762397
000050 65 8c be 3e 4d ef 50 3c fa 9f 03 3c 3e e3 44 3e
       0.37216488 0.012752366 0.008033747 0.19227311
000060 07 ca 49 be ac e6 55 3e df 73 35 be f7 48 5d 3c
       -0.19705974 0.20888776 -0.17719983 0.013506166
000070 25 8c 60 3e b7 28 16 3e 4d 9f cd be eb 1b 1c 3e
       0.21928461 0.14663969 -0.401606 0.15245025
000080 6a 3f cc 3b 9b c3 1f 3f 51 f5 f0 bc 10 61 9a bc
       0.0062331455 0.62407845 -0.029413851 -0.018845111
000090 00 8d 2f be 6b e7 cf 3a 86 4d 78 be 76 99 0e bc
       -0.17143631 0.0015861815 -0.24248323 -0.00870358
0000a0 8c 28 35 3c ff 1d 21 3b b0 18 ab 3d 17 44 1b be
       0.01105703 0.002458453 0.08354318 -0.15162693
0000b0 14 53 99 3e 41 68 34 3e 37 2c 37 3e 3e 68 aa be
       0.29946196 0.17617895 0.1788796 -0.33282655
0000c0 5c 24 80 3e 75 c1 ce bb e3 50 b1 bd 0c 7f d0 3b
       0.2502774 -0.006309683 -0.08658006 0.0063628014
0000d0 08 c7 00 3c ea 1c ae 3e a6 54 a9 3e 69 ce 84 3c
       0.007859953 0.34006435 0.33072394 0.016211705
0000e0 3c c5 5b 3e dd b4 b2 be c6 7c 43 3e 83 73 8a 3c
       0.21461958 -0.34903613 0.19090566 0.016900783
0000f0 3e 1f bd 3c 95 cc 8d 3e 77 57 c8 3d 32 3d 1e 3a
       0.023086186 0.27695146 0.097823076 0.00060363405

arith.constant1 f4 [64, 128]
000000 6d 83 29 be 14 88 85 bd 65 e0 2d be ba 74 92 3d
       -0.16554041 -0.065200955 -0.16980131 0.0715117
000010 19 93 02 be ea 99 27 bf 6b 36 5f 3d db ac 9d be
       -0.12751426 -0.6546923 0.054495256 -0.3079594
000020 17 d8 aa bd 35 17 ca 3e 89 77 58 bf b4 a9 5e 3d
       -0.08341997 0.3947083 -0.84557396 0.05436106
000030 a6 ff a3 be 18 ea 25 bd 60 95 55 3d 8a c5 df 3d
       -0.32030982 -0.040506452 0.05214441 0.109263495
000040 88 96 de bc cd 95 27 bf 68 6d 63 bc 30 80 16 bf
       -0.027171388 -0.6546295 -0.013881065 -0.5878935
000050 fa 20 17 bf 61 4e b6 3d 1d a1 70 be 61 bf 83 be
       -0.59034693 0.08901668 -0.2349896 -0.25731948
000060 7a c9 93 bd 04 fc 12 3f 10 47 3a bf 6d 24 8e bd
       -0.07216163 0.57415795 -0.7276468 -0.069405414
000070 aa 70 4a 3e b3 36 d2 3d 27 42 84 bd f6 01 40 3f
       0.1976954 0.10264339 -0.0645793 0.7500299
000080 7d 0b b0 3e ac a0 c3 be 76 41 c1 bf 1d 6f 14 bf
       0.34383765 -0.3820852 -1.5098102 -0.57982045
000090 13 8d 10 bf bc 39 6d 3e 59 ab 38 3e a1 c1 3a bb
       -0.5646526 0.23166555 0.18034114 -0.002849676
0000a0 58 f1 b5 be 7b 97 dc 3e 4c 27 ed bc 94 3a 89 3e
       -0.35535693 0.4308432 -0.028949402 0.26802504
0000b0 92 06 78 3d dc 43 a1 bd d6 9e fb 3e 02 29 65 bd
       0.06055314 -0.07874271 0.4914462 -0.05594731
0000c0 8f 46 f2 be 33 b2 e3 3d eb 78 3d 3d 1f 4e 50 3b
       -0.47319457 0.11117973 0.046257894 0.0031784845
0000d0 0c 71 4b 3d 9d 16 69 3e 09 2f 58 3d 52 01 9b bf
       0.049668357 0.22762533 0.05277923 -1.2109778
0000e0 98 7d 36 bf 83 00 d3 be 7f 2f b3 3c 25 4f aa 3c
       -0.7128539 -0.41211328 0.021873234 0.020789692
0000f0 6a d6 a2 be 4b 54 4b bf d4 ce cf be e0 3b 9d bd
       -0.3180421 -0.79425496 -0.40587485 -0.07677436
000100 f9 db 9c be 8b 6d d7 bd 57 c4 b4 be 6e 83 8b 3e
       -0.30636576 -0.105189405 -0.35306045 0.2724871
000110 14 61 8d 3e 9e 93 cf be 5e 6a 59 3f e0 fe ae 3e
       0.27613127 -0.4054231 0.8492793 0.3417883
000120 26 60 0e 3d cd ac 41 3e 48 45 02 bf a8 c7 86 3d
       0.034759663 0.18913575 -0.50886965 0.0658105
000130 8f 1e eb 3e d0 47 44 bf 4a 33 78 3e 86 ab d6 3d
       0.45921752 -0.7667208 0.24238315 0.10481934
000140 3d bf 24 3f c7 5a 09 3e 2e 9b 08 3e bf 92 e5 be
       0.64354306 0.13413535 0.13340446 -0.4483852
000150 a3 57 3b 3e 5f 29 a9 bc 8e dc 89 be ac bf 66 3e
       0.1829515 -0.02064961 -0.26926082 0.22534055
000160 d0 92 47 bf 39 91 03 be e4 f1 81 3d 8f 7e 19 be
       -0.77958393 -0.12848367 0.06344965 -0.14989685
000170 1d 71 89 be 46 60 c4 bc e0 5b 33 bf 4e 74 e1 bd
       -0.2684411 -0.023971688 -0.70062065 -0.110085115
000180 0b e3 4d bf a2 5a e5 3c f6 eb 2c bc 76 e6 9a be
       -0.80424565 0.027997319 -0.010554304 -0.30253953
000190 89 ae 0a be 9f fe 0a bf 80 a1 43 3d ac 16 f4 be
       -0.13543142 -0.5429477 0.04776144 -0.47673547
0001a0 04 18 af 3e e7 28 5d 3e 0b 80 ba 3e 8e 0b 8f 3e
       0.3419801 0.21597634 0.36425814 0.27938503
0001b0 66 ba 53 bb c6 56 12 3d c0 8d b1 bd 12 6f 93 be
       -0.0032307147 0.035727285 -0.08669615 -0.28795677
0001c0 19 bf 4f be b5 0c d3 3d 1c 5f 19 3e 9c e9 ed 3d
       -0.20287742 0.10305158 0.14977688 0.11616823
0001d0 c4 73 ba 3e fa cc a0 bd 2e cc 20 3f 12 16 a3 be
       0.36416447 -0.07851596 0.62811553 -0.31852776
0001e0 2f d0 59 3f 73 30 5c be 4f 95 d5 bd 55 76 d9 be
       0.8508329 -0.21502857 -0.10428869 -0.42473093
0001f0 7f 6c 18 bd 19 62 31 3f 88 3d 1f bd 8a 40 d1 3d
       -0.037212845 0.6929031 -0.03887704 0.10217388
000200 23 1e e5 3c 94 3d 8f be 5f 6a e5 3d 97 4d 7e bf
       0.027968472 -0.27976668 0.11201929 -0.9933714
000210 81 f2 aa bd 4f 1f 19 3e 2d 4c 9b 3d b3 2b 81 bd
       -0.08347035 0.1495335 0.07582889 -0.06307163
000220 95 15 ca bb 4e cf 91 3d a4 34 ad be ff 1d 1e 3c
       -0.0061671236 0.07119618 -0.33829224 0.009650706
000230 f8 c0 14 bf e3 0e a4 bd d1 ac 04 bf de c9 ac be
       -0.58106947 -0.08010652 -0.51826197 -0.33747762
000240 73 70 64 be 2e 74 a5 3e f1 01 31 3e a4 3b f5 3e
       -0.22308521 0.323152 0.17285897 0.47897065
000250 98 f4 e4 bc 07 d0 4f be a5 55 58 3d 2d 51 46 3c
       -0.027948663 -0.202942 0.052816052 0.012104315
000260 47 e4 89 3d ee 4f 9f 3d 89 a2 01 3e 8a b2 22 bf
       0.067329936 0.07778917 0.12659658 -0.6355368
000270 7c ea 02 bd 07 d3 05 be 53 0d b7 3c 96 2b 7d be
       -0.031961903 -0.13068782 0.02234522 -0.24723658
000280 c9 22 31 3e 86 ee 06 bd 56 65 9d bd eb fd d2 be
       0.17298426 -0.032942317 -0.07685344 -0.4120935
000290 e7 f7 0d 3e e2 ba 9f 3b 1a 0f ad bd 91 0b 3b bd
       0.13864098 0.004874573 -0.08450146 -0.045665327
0002a0 65 f4 34 be b8 13 ee bd 81 21 f4 3c 24 e2 b9 3e
       -0.17671354 -0.11624855 0.029801132 0.36305344
0002b0 32 fc a4 bd 84 32 dd 3c 57 74 2f 3e 9f 59 94 bd
       -0.08055915 0.027001627 0.17134224 -0.07243656
0002c0 a7 6e 2e be cd b1 b9 3e ec 25 f4 bc c8 3c 48 3e
       -0.17034398 0.36268464 -0.029803239 0.19554436
0002d0 45 17 98 bd 42 6f 91 3e b0 5d 02 3f dc a9 4f be
       -0.07426313 0.28405195 0.50924206 -0.2027964
0002e0 5e ad c6 3d b1 4b 2b 3e e8 9e 3f 3d 3c 13 b6 3e
       0.09701036 0.16728093 0.046782404 0.3556155
0002f0 cb e0 74 bd 1b 08 44 be 15 6b 16 be 5a 2c 84 3e
       -0.05978469 -0.19143717 -0.14689286 0.25815088
000300 4b 5c 14 be 18 32 67 be af 4a 7f bd 3a 18 bd 3d
       -0.14488332 -0.22577703 -0.062327083 0.092331365
000310 c0 1d 67 bd 74 ad 54 3e 99 a9 62 3f 2d 4e bd bd
       -0.056424856 0.20769292 0.88540035 -0.092434265
000320 59 46 4d 3e 86 31 d1 bd e9 30 a6 3e a8 fe d4 3d
       0.20046367 -0.10214524 0.3245919 0.10400134
000330 53 24 f0 3d eb 66 b4 3e a1 f1 51 bd 22 17 75 bd
       0.11725678 0.3523477 -0.051255826 -0.059836514
000340 a0 50 97 bd d2 bd 5f 3e fc da 56 bd 08 e5 b3 3d
       -0.07388425 0.21849754 -0.052454934 0.087839186
000350 5a cd 3e 3e ec d2 4f 3d 06 e7 0b 3f cd be 19 3e
       0.18633023 0.05073826 0.5464939 0.15014191
000360 6b 34 82 be c4 4a 3e be 26 15 05 be 1c 6c 0d 3f
       -0.25430617 -0.18583208 -0.12996349 0.55243087
000370 86 42 99 3e dc 05 2c 3d 2d 38 77 3f 2d 98 61 3d
       0.29933566 0.041997775 0.9657009 0.055076767
000380 0d 49 cb bd e3 d0 5c 3e 79 7c cf bd be b2 b1 bd
       -0.09926043 0.21564059 -0.10131163 -0.086766705
000390 53 95 c2 3d 74 8b d8 bd cb 8c 2e be ad dc 36 be
       0.095011376 -0.105734736 -0.17045896 -0.17857619
0003a0 d0 93 f3 3d b9 7d 1d 3e f2 75 29 bc 92 b5 c5 be
       0.11893427 0.1537999 -0.010343062 -0.3861509
0003b0 b0 12 82 bd 3e d8 5e bd d5 a7 02 3e 2b 36 0c bd
       -0.063512206 -0.054405443 0.12759335 -0.034231346
0003c0 7c db 27 be e3 99 97 be 75 0a 33 be 92 9f aa be
       -0.1639232 -0.29609594 -0.17484458 -0.33324867
0003d0 3a 6d 29 bd 8c 64 79 be 4a 97 18 3e 5f eb 29 3e
       -0.041363932 -0.24354762 0.14901462 0.16593693
0003e0 e0 83 6e be ac c0 d7 be d2 b8 28 bf 40 8c f6 3e
       -0.23292494 -0.42139184 -0.65907013 0.48153877
0003f0 f7 50 20 bf 90 22 4b 3f 37 33 ad 3d 07 ae 70 3e
       -0.6262354 0.79349613 0.08457034 0.23503886

sequential_1/dense_1_2/BiasAdd/ReadVariableOp f4 [64]
000000 a6 32 e0 3e 3d 99 f0 be d7 37 fc 3e f5 17 51 3c
       0.43788642 -0.46991912 0.49261352 0.012762059
000010 5a ea 58 bc f5 b4 72 be a4 41 c6 bd 9f a4 f1 bd
       -0.0132394675 -0.23701842 -0.09680489 -0.11798977
000020 72 04 0f 3f 10 ee de bd 08 fc ec bd 58 a1 1e bf
       0.5586616 -0.108852506 -0.11571509 -0.6196494
000030 db 82 e4 be ad ca 26 be 5a 05 b7 3e 88 c4 19 3f
       -0.44631085 -0.16288252 0.3574627 0.6006551
000040 90 38 0b bf 8a 77 51 3e d9 58 ad bd 79 a4 95 3e
       -0.5438318 0.20455757 -0.08464212 0.29227045
000050 5d e6 05 3f 40 c9 c5 bd a8 9c 5f bc 30 64 dd 3e
       0.5230463 -0.09657526 -0.01364819 0.432405
000060 e1 b6 eb bd 3b 7c 26 3f 1b 22 76 3e c8 0c ce bd
       -0.11509491 0.6503331 0.24036448 -0.100610316
000070 d9 b3 52 be 47 80 75 3e 93 00 92 bb 58 b4 1b be
       -0.20576419 0.23974715 -0.004455635 -0.15205514
000080 63 71 13 be 45 e4 2a be 4f 96 f7 bd 05 b2 3c be
       -0.14398722 -0.1668864 -0.12089216 -0.18427284
000090 d0 e4 ab 3e a4 98 18 be 0b dc a0 be 8f d6 95 bd
       0.33573008 -0.14901978 -0.3141788 -0.073163144
0000a0 73 c9 08 be cc 07 19 be cf 67 30 be e2 dc c2 3e
       -0.13358097 -0.1494438 -0.172271 0.38059145
0000b0 a7 b2 cd 3e 4c 3c b0 3e b2 b6 cc be 57 5c f7 be
       0.40175363 0.34421003 -0.39983135 -0.48312637
0000c0 ee f8 f3 bc c8 1e 4a bd 4b 69 9b be 93 e7 c4 bd
       -0.029781785 -0.04934576 -0.3035377 -0.09614482
0000d0 22 f1 06 be 4b 07 da 3d ac e9 3a be 63 95 8d bd
       -0.13177922 0.10645922 -0.18253201 -0.06913259
0000e0 b4 69 2d 3f 11 a8 06 bf fd fb 64 bd b2 d2 bf 3c
       0.67739415 -0.526002 -0.055904377 0.023415897
0000f0 b1 ab af bd 02 63 54 3f 69 ae eb be 6a b0 bb bd
       -0.085776694 0.82963574 -0.46031502 -0.09164508

sequential_1/dense_1/BiasAdd/ReadVariableOp f4 [128]
000000 dc a1 41 be 40 75 88 3d e8 b5 fc be 31 45 c8 3e
       -0.189094 0.06662989 -0.49357533 0.3911529
000010 83 e9 55 be 6b 90 a8 bc 34 ac 82 be 55 9b ea bd
       -0.20889859 -0.020576676 -0.25522006 -0.114554085
000020 aa e3 29 be 44 e7 d7 be 7c cb 88 bc 64 be f8 3a
       -0.16590753 -0.4216863 -0.016698591 0.0018977639
000030 25 0c 9b 3e e2 d8 13 bd 8b 77 a7 3d f2 d4 2b be
       0.30282703 -0.036095507 0.08177098 -0.16780451
000040 ad 0e 03 be cf f4 20 be 13 92 b7 be 2f ee de 3e
       -0.12798567 -0.15718387 -0.35853633 0.43541095
000050 37 37 26 ba 10 18 cc bb 73 e5 a5 3d a0 d7 0d be
       -0.0006340625 -0.0062284544 0.081004046 -0.13851786
000060 32 e8 b5 be e7 2c ba be 10 16 b5 3e 10 9f 2a be
       -0.35528713 -0.36362383 0.35368395 -0.1666224
000070 10 d0 9c bd 34 17 2d be 9d ed 29 be 7e cb 04 bf
       -0.07656872 -0.16903383 -0.16594549 -0.51873004
000080 1d ac c0 3d ac 6b cc be 58 2d 98 bb 3f 35 09 3f
       0.09407828 -0.39925897 -0.0046440773 0.5359687
000090 0c 95 c4 be b0 e7 1d 3e 62 ac b4 be 01 44 75 3e
       -0.38394964 0.15420413 -0.35287768 0.23951723
0000a0 ea 2c ec 3e e9 84 3c 3d b0 c3 32 be 44 77 e2 3b
       0.46128017 0.04602519 -0.17457461 0.00691119
0000b0 e7 4c a5 3d 04 3f 58 be e0 6d 30 be ba dc 2a be
       0.080713086 -0.21117789 -0.17229414 -0.16685763
0000c0 e5 45 b5 be ef 41 40 bf d3 a0 14 be f0 83 79 3e
       -0.35404888 -0.75100607 -0.14514475 0.24366736
0000d0 37 0d f6 bc fe 6a 01 bf 6c f7 08 be db 80 4b be
       -0.030035598 -0.5055388 -0.13375634 -0.19873373
0000e0 74 5e a3 3d c7 7e 02 bf f2 a2 4a be cc b5 09 3f
       0.07977 -0.50974697 -0.19788721 0.53793025
0000f0 a0 05 0e 3e 3c 35 6e 3d 87 5f af 3e 38 05 e0 bd
       0.13869333 0.058156237 0.3425257 -0.109384954
000100 3f 31 bc bd ef 26 1a be 69 73 ab 3d ba e1 3f 3d
       -0.091890804 -0.15053914 0.08371622 0.04684613
000110 ee 65 bb be 40 b7 6e be 32 10 45 bf c1 ab a5 bd
       -0.36601204 -0.23312092 -0.7697784 -0.080894
000120 3c b0 e0 bd 53 77 87 be 78 37 22 3e dd de 79 3e
       -0.10971114 -0.26458225 0.15841472 0.24401422
000130 8f 9d 7d be 52 6a 67 3e de 9e 90 bb 00 00 00 00
       -0.24767135 0.22599152 -0.0044134697 0.0
000140 17 02 98 be a6 8d f0 bd a4 19 5b 3d e6 11 05 bf
       -0.29689094 -0.11745767 0.05349125 -0.51980436
000150 81 30 0f bf 74 52 9b bd fd 13 3b bf e0 1d 4d 3e
       -0.55933386 -0.07584086 -0.73077375 0.20030928
000160 7c 6d 94 3e 95 4b e9 bd 21 ab af be 87 10 e3 be
       0.2898978 -0.11391369 -0.34310248 -0.44348547
000170 7d 2a 19 be 84 53 42 be 03 18 b5 bd a2 70 c7 bd
       -0.14957614 -0.18977171 -0.088424705 -0.0973828
000180 f5 7f 30 bc f6 7c 59 be a0 6e b2 bd 01 21 9a be
       -0.010772695 -0.21239075 -0.08712506 -0.30103305
000190 6b 6a f8 be e6 eb 4b 3f 00 00 00 00 b5 05 44 3e
       -0.4851869 0.7965683 0.0 0.19142802
0001a0 1e a7 fe be c3 69 3a be 67 bc a3 be 25 1f fd be
       -0.49736875 -0.18204407 -0.31979677 -0.49437824
0001b0 33 d9 a8 bd 37 4f d9 bd 55 63 0c bd ef 6c 8a be
       -0.082445525 -0.10610812 -0.034274418 -0.27036235
0001c0 65 30 dc 3c 0c 74 a5 3e be 4b fc bd 82 f5 28 be
       0.026878545 0.323151 -0.12319134 -0.16499904
0001d0 c5 64 02 bf e5 93 b6 be 33 0a 79 bd 1c 37 16 3e
       -0.5093501 -0.3565971 -0.060800742 0.1466946
0001e0 5b 64 00 39 21 97 00 3d a5 48 68 3e 71 7a df 3e
       0.00012244417 0.031394128 0.22683962 0.43648103
0001f0 8e c9 3b be 69 68 6c bf 78 44 2a be 71 64 db be
       -0.18338606 -0.9234682 -0.16627681 -0.42850068

sequential_1/dense_1/MatMul f4 [128, 7]
000000 41 bc 46 bf 14 ef 6e 3d ae 35 ef bc f2 49 8b 3e
       -0.77631 0.05833347 -0.029200401 0.27204853
000010 87 22 43 3d 8c b8 d0 3e 3d 37 a1 be ba a5 48 3e
       0.04764035 0.40765798 -0.31487456 0.1959447
000020 b3 f1 be 3e 4e 68 9d bd be 06 ea 3c a9 1e 6f 3e
       0.37293777 -0.0768591 0.028567668 0.2335154
000030 2c dc 80 bf 65 52 12 3e 79 f7 41 bf 04 6e 3e be
       -1.0067191 0.14289244 -0.7576824 -0.18596655
000040 2f 81 90 3e ec 5a 42 3e b6 28 2f bd c5 8a 69 3e
       0.2822356 0.18979996 -0.042763434 0.22806843
000050 29 cd 6e be 44 25 92 be 06 b6 95 3e 58 f5 35 bd
       -0.2332045 -0.28544056 0.29240435 -0.04442343
000060 79 84 06 be e5 39 d2 3d 05 af 18 3f d3 ca 2e be
       -0.13136472 0.10264949 0.5964206 -0.17069559
000070 20 42 5f 3d c1 66 de bd 68 36 21 bf a3 aa 05 bc
       0.05450642 -0.108594425 -0.6297364 -0.008158359
000080 69 3a 28 3e 4f a4 bb bf 92 53 b0 3d 5f 5b bb 3b
       0.16428532 -1.4659518 0.0860969 0.0057176794
000090 41 be 53 bd 25 0a 1d bf 3d 68 54 bf 92 80 ff be
       -0.051695112 -0.61343604 -0.82971555 -0.4990278
0000a0 e1 53 2e 3f ab 96 05 3e a0 89 14 3c e0 e5 7e be
       0.6809674 0.13045757 0.0090660155 -0.24892378
0000b0 c4 42 05 be 46 8c e7 3c e7 c7 a3 bd 28 d0 0f be
       -0.1301375 0.02826513 -0.07997113 -0.14044249
0000c0 08 e3 98 3c 51 8e 18 3c 03 a3 a8 bf 86 e9 7a 3e
       0.018662944 0.009311275 -1.3174747 0.24503145
0000d0 db 5c 20 bd 24 67 dc be e5 18 57 3c ac ab a7 bd
       -0.039151054 -0.4304744 0.013128494 -0.08187041
0000e0 38 1f 9c 3c 9e 37 0d bd da 48 a7 bd 9b 81 a1 bd
       0.019057855 -0.03447687 -0.08168192 -0.078860484
0000f0 80 49 08 be fc 6f fa be 0e 31 01 bd 57 31 cf 3d
       -0.13309288 -0.48913562 -0.031540923 0.10116833
000100 dc b8 01 be 49 50 ef be c6 87 db bb cc d4 86 be
       -0.12668175 -0.4674094 -0.006699535 -0.26334226
000110 f7 ee 3b 3e 95 b7 4c 3e 6a fc 5a bf 2a f9 cc 3e
       0.18352877 0.19991906 -0.85541403 0.40033847
000120 50 8d 3e 3e 94 a7 81 bd 2e ce 9c bd 89 e8 f3 bd
       0.18608594 -0.06330791 -0.07656513 -0.11909587
000130 9e 33 81 bf 66 28 76 bd 10 a0 13 3f 68 3e 3b 3e
       -1.0093877 -0.06009712 0.5766611 0.18285525
000140 df 11 0a be 37 5f 6a 3d 8e a7 9c bf 5b a8 2b bc
       -0.1348338 0.05721971 -1.2238634 -0.010477151
000150 d5 b2 06 bc 3e 61 57 bd 82 0c ca bc 39 d4 2d bd
       -0.008221348 -0.05258297 -0.024664167 -0.04243872
000160 d9 23 d3 3e 5e 17 ad bf cf 99 eb 3d 17 e2 7a bc
       0.41238287 -1.3522756 0.11503946 -0.015312693
000170 a8 96 0d bd 17 4e a6 bc 7d 24 ea 3b 02 d3 03 be
       -0.034567505 -0.020300908 0.007145463 -0.12873462
000180 4a ea 7b bf 6f 54 f3 bd 37 37 76 be 8e 3f 74 3e
       -0.9840437 -0.11881339 -0.240445 0.23852369
000190 fa d7 92 3e 04 3c 13 3e 68 8b bc 3d a6 6f 8b bf
       0.28680402 0.14378363 0.09206277 -1.0893447
0001a0 ad 85 d5 3d f6 be 68 be 77 53 58 bb 8a bd 0a 3c
       0.10425887 -0.22729096 -0.0033008733 0.008468041
0001b0 b2 14 a9 3d be dd af 3d b4 00 1e 3f a5 7d 05 bf
       0.082559004 0.08587216 0.6171982 -0.52144843
0001c0 b8 16 13 be 0f c2 b0 3a ad 54 92 bd 65 3c 8d bd
       -0.14364135 0.0013485568 -0.07145057 -0.06896285
0001d0 ed 22 a5 bd 32 3b 4f 3d f1 65 c4 bc 8b 5a 2f 3c
       -0.08063302 0.050593562 -0.02397439 0.0107027395
0001e0 6c 50 6e bd d5 94 04 bf c2 53 0e be b9 48 d0 be
       -0.058182165 -0.517896 -0.13899139 -0.40680483
0001f0 8d 1a 63 bf cd 62 24 3c e4 31 65 be db ae 88 be
       -0.8871239 0.010033322 -0.22382313 -0.26695904
000200 2e 93 17 3d a7 d3 a0 3c b8 8f 93 bd 8b a0 8d bd
       0.037005596 0.019632174 -0.072051466 -0.06915387
000210 7f f4 43 bc 3a b8 02 be 64 2e 4d be d9 d5 09 bf
       -0.011960148 -0.1276559 -0.20037228 -0.5384193
000220 dc 35 7d bf f3 73 28 bd 78 3c 6e be 73 1a 22 3e
       -0.9891031 -0.041126203 -0.23265254 0.15830402
000230 9e df e7 bc 7d 7d 6d bd 56 8d 76 be 6b 97 85 bd
       -0.028304871 -0.057981003 -0.24077353 -0.06523021
000240 81 a9 96 be 43 a4 50 bf 1f ab d6 bd b0 6d 3f 3d
       -0.29426196 -0.81500643 -0.104818575 0.046735466
000250 a1 76 81 be 14 e9 9a bd 5f d5 2c 3c e3 2f 4c 3d
       -0.2528582 -0.075639874 0.0105489185 0.049850356
000260 cd 77 6b 3f 2c bd 89 3e 99 dd 4e bc 29 bc 40 3d
       0.91979676 0.2690214 -0.012626075 0.047054444
000270 13 3f cc bd f6 7c d2 3e f5 0e 0c be bc 0e 8c bf
       -0.09972968 0.41110963 -0.1367758 -1.0941997
000280 48 51 93 3d c7 82 fb bd 25 f6 e9 3b 58 f7 45 be
       0.071932375 -0.12280803 0.0071399384 -0.19332635
000290 6f e8 82 be 48 c5 13 3c b5 c5 b4 be c2 38 a6 bd
       -0.25567958 0.0090192035 -0.35307088 -0.081162944
0002a0 0d ee 76 be 0c 2e 4d 3b bf 3e 80 be 74 9e 61 be
       -0.24114247 0.0031307964 -0.2504787 -0.22033101
0002b0 12 13 28 3d 02 f6 33 3e a4 3c 04 be 17 89 bf be
       0.041033812 0.17574313 -0.12913758 -0.3740928
0002c0 d1 93 94 3e 3c b4 ad bd c2 63 bc bd af 5f 7a bf
       0.29019025 -0.084816426 -0.09198715 -0.9780225
0002d0 43 88 dd 3e 00 e4 3a 3e 27 c7 4a 3d d7 d3 89 be
       0.43268022 0.18251038 0.049506333 -0.26919433
0002e0 3f 5d 69 bf 44 da c7 be 14 d0 9e 3e 94 28 9d be
       -0.9115791 -0.3903371 0.31018126 -0.3069502
0002f0 5c 2c 4a be ca c7 94 3d 91 7f 61 be 7e d2 b8 bd
       -0.19743484 0.07264669 -0.22021319 -0.09024523
000300 32 38 5a bd 75 84 85 be 62 6b 83 3e 43 20 ab be
       -0.05327625 -0.2607762 0.25667864 -0.3342305
000310 80 c7 51 be 07 a7 96 3c b6 d6 80 bd b2 1f 6d bd
       -0.2048626 0.018390192 -0.06290953 -0.057891555
000320 f8 35 31 be ef 5b 9e be 32 77 e1 bd 80 47 be be
       -0.17305744 -0.30929515 -0.11009063 -0.37163925
000330 8f b4 8b 3d 42 82 c9 3d e6 cb 6a be 9b 49 9a 3b
       0.06821548 0.09839298 -0.22929344 0.0047084815
000340 5c 28 58 bf 52 a1 97 be b9 11 87 bc 6c 2a 4d be
       -0.84436584 -0.29615265 -0.016487943 -0.20035714
000350 f8 e3 aa bd ba b4 36 bd f4 a5 f0 bc b5 1c af 3d
       -0.08344263 -0.044605948 -0.029376008 0.08550397
000360 8d 64 cc 3b 12 ac c4 be cb 18 ee bd 4f 07 4e 3e
       0.0062375725 -0.3841253 -0.11625823 0.20119976
000370 25 8c 7c be a3 34 18 3e fc 47 03 3e d7 45 65 be
       -0.24662836 0.1486383 0.12820429 -0.22389923
000380 af d7 a5 3d e7 1d b7 3e 04 5f 8d be a3 b8 e2 bd
       0.08097779 0.35765 -0.27611554 -0.11070373
000390 85 e3 42 be f0 41 45 bf 34 ac 2a be 48 55 5a 3e
       -0.19032104 -0.7705374 -0.16667253 0.21321595
0003a0 bc 4d bf be ef 3e 94 3e 7c 9a 31 bf f7 4e 2e be
       -0.37363994 0.28954265 -0.6937635 -0.1702231
0003b0 2b 0d 95 3c aa bd b0 be 02 ab 59 bf 15 dc 26 3e
       0.018194756 -0.34519702 -0.8502656 0.16294892
0003c0 45 9b 5d bf b6 fb 94 be 59 87 bc 3e 8a 28 76 3e
       -0.8656505 -0.2909829 0.36822012 0.24038902
0003d0 9f f3 c2 be 8d 56 8b 3c e6 57 0a bd 26 9a 8e 3d
       -0.38076493 0.017009044 -0.033775233 0.06962995
0003e0 a3 9c 80 3d cb 2b 57 3d 98 9d b0 bf 41 ab 72 bd
       0.06279876 0.052532 -1.3798094 -0.05924535
0003f0 2b 9a f0 3d c3 0c 17 bd 3b ab 5b 3e b3 5a 7c be
       0.11748155 -0.036877405 0.21452038 -0.24643974
