tensorflow_model.tflite (tflite, 39956 bytes, 5 tensors)

arith.constant f4 [1, 64]
00000000: 2fe6 0fbd 588a f8be d842 e2bc 6a26 c13e
00000010: b95b 54be 3239 033c 0e92 a9be 07e7 32bd
00000020: 31e6 f63c 56e0 c73e d4ff d0bc 27e2 a83b
00000030: c0e8 9bbb b9d4 3fbe a7e3 d4bd 8a2f 8f3e
00000040: 05a9 273c 24f8 a83e 6f91 b83b 8d62 a4be
00000050: c985 173c a4b3 00be 3b77 c83c bf4c 0dbe
00000060: 6697 a13e 33f2 52be 80f7 8dbe 824d d7bc
00000070: bfe7 5f3e 852e 6abc 8c70 5b3b 09bc 9e3d
00000080: e745 d53e 1f29 1b3e df0d 9ebe c41f b73c
00000090: aa85 9b3e 6e0d a4bc 6d93 15bd 3d84 b83b
000000a0: 6ed1 cb3c fc1f 7c3e 97e4 e6bc ce9b ca3e
000000b0: 58f9 0e3e 9e71 95bc b200 21bb bf45 eb3d
000000c0: 4259 81ba c854 823e 00bf fe3e 33cb 2fbe
000000d0: 5fee ceb9 9ce2 113e ff30 10be 097f 0abe
000000e0: fcac 1cb9 fd75 6b3e 4b55 5f3c 9a0a 3d3f
000000f0: c96e 033c 3f14 943b c412 18be 092c a03c
-0.03513163 -0.48543048 -0.027619764 0.3772462 -0.20738114 0.008009242 -0.33119243 -0.043677356
0.03013906 0.39038342 -0.025512613 0.0051539126 -0.0047579706 -0.18733491 -0.10394984 0.27965957
0.0102331685 0.33001816 0.0056325714 -0.32106438 0.009248205 -0.12568527 0.024470916 -0.13798808
0.3156082 -0.20600204 -0.2772789 -0.026282076 0.21865748 -0.014293318 0.0033483831 0.077507086
0.41654894 0.15152405 -0.30869958 0.022354014 0.30375415 -0.020025935 -0.03651755 0.0056309984
0.024880137 0.24621576 -0.028185172 0.39571995 0.13962305 -0.018242653 -0.0024567065 0.114879124
-0.000986852 0.25455308 0.49755096 -0.17167358 -0.00039468982 0.14246601 -0.1408119 -0.13525023
-0.00014941761 0.22994228 0.013631175 0.738443 0.008022019 0.004519015 -0.14850909 0.019552248

arith.constant1 f4 [64, 128]
00000000: 660e 89bd a9d0 8abc 8255 2fbe 63b6 7e3d
00000010: aa7c 993d 5d9b 913c 3532 f1bd a5e2 053e
00000020: 23e4 26be 7ce3 803d 3dce 953d 078c 04bd
00000030: e06d 753e 1130 b73e 4a98 c0bd 433c c9bc
00000040: 35a9 23be 42ea 743e 65d1 723e dbdd eabd
00000050: 050e 683d 3d4a 20bd 5f5e 51be 7f05 9abd
00000060: e136 473e b7b0 9bbc f764 dcbd c68f 2dbc
00000070: c89d 833d 857e 2fbe 210a 13be 5dc4 5abd
00000080: f675 0bbe cb81 993c 96c0 6dbd 7871 0ebd
00000090: 4908 c5bc 0899 e6bd 3317 853e 99d9 a33c
000000a0: fe8f 853d 094c cdbd 4b38 a23c 3b1b b03c
000000b0: 35f9 a7bd 7ab6 733d d892 fabd fa7f c83d
000000c0: 0d6d ea3d 5c20 07be 4618 0c3e bb9a d7bb
000000d0: 8ccc a43d fad5 423d fffa 273e 5d89 fa3d
000000e0: 99a5 85bc 5f91 2b3d 35e8 88be c0ba 293e
000000f0: 402d c33d 8fd3 dabe d38d fabb 21d0 c73c
00000100: e74b 163d 8bf4 96be ad48 5bbc aa18 913d
00000110: 8643 fe3d f156 463d 770d 333d 0781 dfbc
00000120: 153b 26bc 02ff 27be 5414 1e3c 3f8b aabd
00000130: 2a6b 03bd 0c06 153e 1c37 533c f51f 08be
00000140: 2e25 76bd 9cd7 adbe f614 7b3d 8d05 a2bd
00000150: fefa 69be 3928 dd3c 505e 45be a975 8d3d
00000160: 4050 bebd c82d f9bd 4a1c 12be f304 143e
00000170: b0ef 17bd 1fad c53c 7bb1 26bd 8c62 46be
00000180: 5d0a fd3c e92f 16be 4bc6 d93d a3c5 34be
00000190: 0956 33bd 53af 09be d594 1d3d 403a 2bbd
000001a0: 7017 fa3d 4b97 74bc 5ecd a8bc 5587 42be
000001b0: 7a0c 09be 577f 983d 7736 22be 037b 083e
000001c0: 375c eabb a30d 63be 3b92 c53d 9b4a 0c3e
000001d0: e81c 9ebd 2e85 153e b8b4 9cbd d264 31be
000001e0: 65e7 423d 40c4 98bc 094e c3be bd84 03bc
000001f0: 1517 a2bd 2a40 9f3c 25c7 0d3e b842 e13d
00000200: bd31 b6be dd26 2abe 6904 ee3c 8200 70bb
00000210: ca7c 66bc aaa1 143e eee3 5fbd e013 073e
00000220: 6f76 da3d f5b6 b23d 4db8 4a3d d5f4 4d3e
00000230: 75ca 273a 5798 d03d 3044 59bd 59d5 043e
00000240: 6b57 20bd af5a b43e 0e93 a63e 7379 ae3d
00000250: 7e16 8fbe d118 23be 944b aebe 8a4c 59be
00000260: bc31 053f 0afe 16be 9348 9a3e bc03 03bd
00000270: f400 933e aa51 983e e05f 8fbe 8718 b03e
00000280: 545e 0fbe 4532 23be 6443 af3e 1f5c d2be
00000290: 553b 323f df11 ee3e 9449 edbe 1260 ab3e
000002a0: b633 f73c 18a3 2dbe 0c10 f73b d285 b9bd
000002b0: bb59 5c3d f3b0 e53d 201b 0fbd d148 a5bd
000002c0: f420 023f f0a6 d13d 722a 293e 2d98 8bbe
000002d0: bf54 a6be b9bc 17bf bb91 3abd 6aa2 813d
000002e0: 57cb 063f 97df ee3e 0a8c 95be e5a9 79be
000002f0: ddea a8bd 2087 9c3e 7bf8 b53d 63dd 683d
00000300: ca9e 93be c6fa 313e 136c 88be 2df3 9abd
00000310: 6ecc 1e3d f8c8 ec3d 0cd0 45bf 04b7 c43d
00000320: 7df9 91be c469 adbc 11d2 41bf 2a8c 89bd
00000330: 825f b8be 1c5a 313e ab1c fdbc 8265 fe3c
00000340: 16ff 21be d5d3 4a3e eb6a 70be 1063 95be
00000350: a9b0 6d3e 53f6 28bf 90f6 67bd dfaa bb3e
00000360: 6be4 babe 39f0 f4be 70c7 84bd 0a33 8dba
00000370: 75e9 8d3e 9bc5 72be 65f2 a8bd fdb5 61bf
00000380: a9c6 0abe 3437 a4be be32 1fbe 5731 f2bd
00000390: 04bc f4be 6dc0 69bd c6ad c23e 129f b63d
000003a0: 9c3a 8b3b f7c4 003f d958 883d 618d 44bf
000003b0: e270 903c af3d 013e acd0 423e 9c76 b4be
000003c0: 96bf 32be 9f5f 833f b9d5 6bbd 728b 81bd
000003d0: 60b0 053f cb7a 003d 3eff 9bbc 3df6 33be
000003e0: f3f4 9bbd 6af6 b53d aea1 41bd cb09 56bd
000003f0: f22e 11bd 3751 773d 28bf 12be 7426 5fbd
-0.066921994 -0.0169452 -0.17122462 0.062185656 0.07494481 0.017774278 -0.11777154 0.1307474
-0.16297965 0.06293389 0.073147275 -0.032360103 0.23967695 0.3577886 -0.09404047 -0.024564868
-0.15982516 0.23917487 0.2371269 -0.11468097 0.056653995 -0.0391333 -0.20446156 -0.075205795
0.19454528 -0.019005163 -0.10761445 -0.01059336 0.06426579 -0.17138107 -0.14359333 -0.053409923
-0.13619217 0.018738648 -0.058044992 -0.03477618 -0.024051802 -0.11259657 0.25994262 0.02000122
0.06521605 -0.10024268 0.019802233 0.02149736 -0.08201829 0.059500195 -0.122350395 0.097900346
0.11446581 -0.13195938 0.13681135 -0.0065797246 0.08046827 0.047567345 0.16404341 0.12233231
-0.016314315 0.041886684 -0.2673966 0.16575146 0.09530115 -0.4273953 -0.0076463013 0.024391236
0.03669348 -0.29483446 -0.0133840265 0.070847824 0.12415223 0.048422758 0.043714013 -0.027283205
-0.010145922 -0.16405872 0.009648401 -0.0832734 -0.03208462 0.14553088 0.012891557 -0.1329344
-0.06009405 -0.3395356 0.061299287 -0.07911215 -0.22849652 0.026996719 -0.19274259 0.069072075
-0.0929265 -0.12166935 -0.14268604 0.14455013 -0.03709382 0.024130402 -0.040696602 -0.1937353
0.03088873 -0.14666714 0.106335245 -0.17653517 -0.04378322 -0.13445787 0.038472015 -0.0418036
0.122115016 -0.014928649 -0.02060574 -0.18996938 -0.13383666 0.07446163 -0.15841089 0.13328175
-0.007152106 -0.22173171 0.09647032 0.13700335 -0.07720357 0.14601585 -0.07651657 -0.17323616
0.047583956 -0.018648267 -0.38145474 -0.008027253 -0.07914559 0.019439775 0.13845499 0.10999054
-0.35584822 -0.16616388 0.029054837 -0.0036621396 -0.014067838 0.14514795 -0.05466073 0.13191175
0.10667121 0.087263025 0.04949217 0.20112927 0.0006400713 0.101853065 -0.053043544 0.1297201
-0.03914587 0.35225436 0.3253407 0.08519258 -0.27946848 -0.15927435 -0.34042037 -0.21220604
0.52029014 -0.14745346 0.30133495 -0.031985983 0.28711665 0.29749805 -0.28002834 0.34393713
-0.14000827 -0.15937145 0.34231102 -0.41085908 0.69621783 0.4649801 -0.46345198 0.33471733
0.030176025 -0.16956747 0.0075397547 -0.09058727 0.05379651 0.11215391 -0.034937978 -0.08070529
0.5083153 0.10236919 0.16520098 -0.27264538 -0.3248653 -0.5927234 -0.045549136 0.06329806
0.5265402 0.4665496 -0.29208404 -0.24381216 -0.082479216 0.30571842 0.088852845 0.056851756
-0.28832084 0.17380819 -0.26644954 -0.07565913 0.038769178 0.11561769 -0.7727058 0.0960522
-0.28510657 -0.021168597 -0.7571116 -0.06716187 -0.36010367 0.1731953 -0.030897459 0.031054262
-0.15819964 0.1980737 -0.23478286 -0.2917714 0.23211922 -0.6600086 -0.056631625 0.36653802
-0.36502394 -0.47839525 -0.06483352 -0.0010772657 0.27717176 -0.23708193 -0.08249358 -0.8816832
-0.13552345 -0.32073367 -0.155467 -0.11825817 -0.47799695 -0.057068277 0.38023204 0.08917059
0.00424893 0.50300545 0.06657571 -0.7677823 0.017631952 0.12621187 0.19024915 -0.35246742
-0.17455897 1.0263556 -0.05757687 -0.06325425 0.5222225 0.031367105 -0.019042607 -0.17574401
-0.0761508 0.088848904 -0.04727333 -0.052255433 -0.03544516 0.060380187 -0.14330733 -0.05448003

sequential_1/dense_1_2/BiasAdd/ReadVariableOp f4 [64]
00000000: bd8a 04be 39eb 96bd f9a4 11be fe0e 08be
00000010: c594 04bf c909 d7bd 2def 6c3e f934 e2be
00000020: b8ab 6dbe f0ae aabe 4116 a13d 8f12 edbd
00000030: 5210 6ebe acda 783e 12fe 1f3c 365b 88be
00000040: 6b63 55be 9428 85be 630d 79bd 612d 473e
00000050: 0772 e1bd bc62 02bf 10f8 c0bd 6055 493e
00000060: 929c f2bd 157f c9be fb5d c83e 928d 34be
00000070: 277e 973c af59 d9bd b471 0dbe 93da f9bd
00000080: 1078 a7be c143 dcbd 4019 48be 7647 0dbe
00000090: 7f55 13be 763d 3bbe 139e 52be fb42 5ebe
000000a0: 0a84 5ebe bd3b 113d 5121 33be 5da7 22be
000000b0: 7c0b 90be 3ef4 26be 8b46 babd 101b 13be
000000c0: 1c41 44be a2ee 50be d370 50bc a784 cc3e
000000d0: e38d f9bd 4eaf 07bd 2114 0bbe 71a9 123c
000000e0: 4ebd 1abe f6e1 ad3d 3241 c8bd 5cae a0bd
000000f0: 1c0e 2cbe 2520 9dbd af35 9f3d a2ef 38be
-0.1294355 -0.07369084 -0.14223088 -0.13286969 -0.51789504 -0.10499913 0.23138113 -0.4418104
-0.23210037 -0.33336592 0.07865573 -0.115758054 -0.23248413 0.24302167 0.009765165 -0.26632088
-0.20838706 -0.2600752 -0.060803782 0.19450904 -0.11008077 -0.50931907 -0.09422314 0.19661474
-0.1184627 -0.39354768 0.391342 -0.1763213 0.018492771 -0.10612809 -0.13812906 -0.12199893
-0.32708788 -0.107551105 -0.19540882 -0.13796791 -0.14388083 -0.18285164 -0.20568113 -0.21705239
-0.21730056 0.03545736 -0.17493178 -0.15884157 -0.28133762 -0.16304109 -0.09095486 -0.14365792
-0.19165462 -0.20403531 -0.012722212 0.39944956 -0.12185266 -0.033126168 -0.13581897 0.008951531
-0.15111277 0.08490364 -0.0977806 -0.078457564 -0.16802257 -0.07672147 0.07773911 -0.18060163

sequential_1/dense_1/BiasAdd/ReadVariableOp f4 [128]
00000000: c397 ae3d ca33 54be 5bb9 173e c0a9 b9bd
00000010: aca3 41be a975 4cbe b788 25be b524 bdbe
00000020: 2dd5 0c3d b7be b2bc fcb7 d7be d731 8ebd
00000030: 93e1 8d3d 54c4 cfbd 1078 173f 62d6 8c3e
00000040: e278 9dbd bc03 da3c fbe7 bcbe f9e5 b6be
00000050: f720 f5be 3f19 ffbe 415a 45be dfb1 9dbe
00000060: b75e cdbe 01de 5cbe b3aa 82be 3efa 0ebe
00000070: 9957 713e 89af b4be c6c9 86bd e49a 903e
00000080: d6a6 edbe 11e5 a6be 2dad 98be 36b6 89be
00000090: ae79 163e 4c28 89be 5948 3b3d 46b9 b83e
000000a0: 3cb0 87be cd9e 59be 1883 71be 9056 f0be
000000b0: 2929 44be f844 aebc 3b3c 9a3e 658b e1bd
000000c0: e33b c2be 9ac7 92be f60a a0be ff9e a5be
000000d0: f6ec 04be b343 06bf 0607 81be d145 013f
000000e0: c3e5 65bd 8e50 f3bc e9fe 30be efd4 b7bd
000000f0: ce62 5a3c 7c9c e1bd ea08 debe f2e2 c8bd
00000100: df54 6ebe 04e9 c9bc 3aaf 48be b9c1 d0bd
00000110: 78b4 bebd 496e 89be aea5 c7bc 570e 08be
00000120: 0765 b6be 0b65 88be bcd0 ccbe 1dde 62be
00000130: 7a00 4fbe 6e87 7dbe 3b8b 613d 04e7 01be
00000140: 6ecc d73d 109b 71be b77b 78be 75a9 243e
00000150: 29a1 2fbe eb2b d53d 64d8 653e 6641 56be
00000160: d9c6 c5bd 19e1 d93d 4dfa 56be 9b85 d0be
00000170: 5e44 52be 5ec7 95bd 18ae dfbe 5386 893e
00000180: 7163 2d3d e738 293e df4e 04be 96f2 83be
00000190: 320a 8e3e 728c 12be 1455 8f3d af71 36be
000001a0: 0e48 36be 826b cabd cada 92bc 84ab 48be
000001b0: 2143 46bd e039 82be 9b1e d5be ff60 1f3d
000001c0: e70c 32be 2ac9 95be 766a f0bd c464 72be
000001d0: 8d28 65be 8649 1fbd e1be 87bd bc9b 4ebd
000001e0: a282 ccbe 2e86 273e 21ca 30be ff35 7ebe
000001f0: 7ceb a1bd 7dd9 34be dd71 06be 1c25 1bbe
0.0852504 -0.20722881 0.14816801 -0.0906558 -0.18910092 -0.19966759 -0.16165434 -0.36942068
0.034382988 -0.021819456 -0.42132556 -0.069431 0.069277905 -0.101448685 0.59167576 0.2750731
-0.07689072 0.026613109 -0.36895737 -0.3572233 -0.47876713 -0.4982395 -0.1927271 -0.30799767
-0.40111324 -0.21569063 -0.25520858 -0.13962647 0.23568572 -0.35290173 -0.06581454 0.28243172
-0.46416348 -0.3259664 -0.29819623 -0.26896828 0.14694855 -0.26788557 0.045723293 0.36078852
-0.26501644 -0.21251984 -0.23585165 -0.46941042 -0.19156326 -0.021273121 0.30124077 -0.110129155
-0.37936315 -0.2866791 -0.31258363 -0.32347867 -0.12981018 -0.5244705 -0.2520067 0.50497156
-0.05612732 -0.029701497 -0.1728474 -0.08976161 0.013329221 -0.11016175 -0.43366176 -0.098089114
-0.23274563 -0.024647243 -0.19598094 -0.101932 -0.093117654 -0.26841953 -0.024370994 -0.1328672
-0.35623953 -0.2663959 -0.40003002 -0.22155042 -0.20215026 -0.24758694 0.05506442 -0.12685782
0.10537039 -0.23594308 -0.24265943 0.16080268 -0.17151321 0.10408767 0.22445828 -0.20923385
-0.09657068 0.10638637 -0.2099392 -0.40726933 -0.20533893 -0.07313417 -0.4368751 0.26860294
0.042331163 0.16525613 -0.12920712 -0.25771016 0.27742153 -0.14311388 0.06998649 -0.17816804
-0.17800924 -0.09883787 -0.017926592 -0.19596678 -0.048403863 -0.2543478 -0.41624913 0.038910862
-0.17387734 -0.29255038 -0.11739056 -0.23671252 -0.2237875 -0.038888477 -0.06628204 -0.05044149
-0.39943415 0.16359779 -0.17264606 -0.24825285 -0.07906243 -0.1766109 -0.13129373 -0.15150875

sequential_1/dense_1/MatMul f4 [128, 8]
00000000: 4995 e3be 2d7f 06bf ccee 563d 40ea c0bd
00000010: c157 f5be 55d2 cdbe 7e3f da3d be8c 053f
00000020: 2c2e 4cbe 9a01 01be 95cd a0be c877 32be
00000030: fbe3 50be f61b b1bd 1627 c13e c012 403e
00000040: 2fb6 6b3e 553b 0abf ee0b b5be d60e f1be
00000050: 248d 2ebf 41f6 a7be a0fc 003d dfb8 8cbe
00000060: 6b7c 973e 7fd0 663d 17ce a23c 1823 7c3d
00000070: 52af fe3d c1e2 e1be 6722 59bf 01ed bcbe
00000080: 5d9d ffbd 1f58 40bd b544 ccbc aea0 1ebe
00000090: 32ca a9b9 3c47 47be e968 223e 3668 083c
000000a0: eb86 a33e 44e1 80bd 2898 89ba 251d a5be
000000b0: 38aa 1ebf 7cb4 dd3d 7376 32bf 3fd4 fe3e
000000c0: ec27 04be 09f2 acbd 053c 783e 39e0 24be
000000d0: b657 43bd 8fef 323e 2a81 593f 81f5 e43d
000000e0: f689 b43e 60a0 59be 31d2 893c 853c 6d3d
000000f0: d8ab 59bd 6a8f f03d d463 adbf 9ddf fbbd
00000100: 0f32 9b3e cd06 8ebd 8d23 33bf 2ed6 98be
00000110: 5b3e 4c3d 7d43 7a3e 42ee 893d 63ae e3be
00000120: 343f 13bf 6947 f23d e8a7 273d 56fe d53d
00000130: 4412 c5be e265 a63e 1ef4 d8be 50bc e63e
00000140: bb36 cd3d e55d 113c dd42 a43d 2faa afbe
00000150: 8aa5 1ebf 8deb 72bf 29b3 0bbf 93eb 54bf
00000160: e814 cdbe a814 bcbe 08ab d6be 75a8 7dbd
00000170: c1fd ecbe 624f 4f3e a859 29be a3aa ef3e
00000180: 2b7d 6b3e 8a7d e73d 0625 afbe 0ca4 91be
00000190: 150b 8abf a75c ce3d c61d aa3d 183a 65bf
000001a0: ef5b 25bd 4387 4e3e 9287 9fbe b5d1 06bf
000001b0: 03ab 433e 58ec 91bd a118 893e 6582 70be
000001c0: 5314 bfbe 32ea 9dbd 9de5 6b3d eb95 4b3d
000001d0: e41b 7dbe e45b 11bf a368 e93e 4685 debe
000001e0: b190 773e a7f3 88be a939 a43c aeb6 4e3d
000001f0: ced4 98bd e5c0 98bd 72c1 98bf bbdf 27be
00000200: 238a 773b 0608 a7bd a181 41be df9f b6bc
00000210: 9b0f 84be b733 65be 8dce b2be f6a3 353d
00000220: 5fd0 cd3d acc4 e3bd b10a 7dbe 5a1a 2ab9
00000230: d24a c1be 5dbe 9bbe cc15 0dbf ad73 253e
00000240: c7fc 32bf c5d3 be3e 86df 1fbd 26aa 94be
00000250: aae0 a23d c11c 8fbd 1075 71bf cc89 b2bd
00000260: 32c5 4abf 3045 a43d f4d7 66ba bf1c 7b3e
00000270: bf6b 9a3d edd8 a1be 0d71 e43d bdad 673e
00000280: 4c8e 373e 5b8b 24be d5d2 9f3d 04a6 f8bc
00000290: e3ca d23d 2e8f 0cbf a39b 37bf a6b3 173b
000002a0: f76b c6be f2a2 873d badf bb3d 2b36 463e
000002b0: 1f48 9d3d 3811 06be 7948 d93e 3e49 233d
000002c0: 56c1 9a3e e553 643e 7486 403d 349b 3e3e
000002d0: 0a0e 343b 2840 29bf c3d9 65bf 4727 9dbe
000002e0: 0367 2a3e fcfe 3d3d 8029 debd fdfc fd3d
000002f0: 6eac eabc 2758 d1be 034c 76be ada8 a6bd
00000300: 0354 ac3e 9bfd c5bd c780 6cbe 2fe0 64bd
00000310: e246 1e3d 396a a43e 6c3c 88bf f1a9 68be
00000320: fa13 5fbd 4f04 13bd 2400 b53d 3042 48be
00000330: a84d 9fbe e6f6 38bf d03f 2bbf 2109 18bf
00000340: a5bd da3c b651 933c 6af9 89bf 7631 1cbe
00000350: 3e63 293e 89cc 263c c666 083f 1085 cdbe
00000360: 55a0 f0bd 8b3b 943c 5be4 0ebe f933 ef3b
00000370: 797f 83be 59a6 a4ba 170b 483d 85e4 e8bc
00000380: ff95 18be 214d 453e 6df3 97bb c2fb 6c3b
00000390: a6ef 60bf bf83 0ebf 6187 14bf ad12 8ebe
000003a0: 3ebc 10bd 9887 94bd 237e 5bbd 15b7 efbd
000003b0: fb7e 90be 7930 303e 1371 0b3f c49d b63e
000003c0: 8a98 45bd f4a3 783c 2617 32bd 3c03 fbbc
000003d0: cf23 e6bc 1677 a4be a4ef f3bc 8b19 aebb
000003e0: 3927 35be 0fe5 67be 238f 91be ff59 2b3e
000003f0: 3ac9 99be 118e 87bf 764b 01bf a446 113e
-0.44449833 -0.52537805 0.05247383 -0.0941968 -0.47918513 -0.40199533 0.106566414 0.5216788
-0.19939488 -0.12598267 -0.31406847 -0.17428505 -0.20399468 -0.08647911 0.37725133 0.18757153
0.23018716 -0.53996783 -0.35360664 -0.4708163 -0.68184114 -0.32805064 0.031490922 -0.27484795
0.2958711 0.05635118 0.019873662 0.061556906 0.124357834 -0.44118312 -0.8481812 -0.3689957
-0.124811865 -0.04695904 -0.024935106 -0.15490982 -0.0003238484 -0.19460768 0.15860333 0.008325627
0.31938872 -0.06292966 -0.0010497617 -0.32248798 -0.61978483 0.1082544 -0.6971199 0.49771306
-0.12905854 -0.08444602 0.24241646 -0.16101159 -0.04769107 0.17474197 0.84962714 0.11179639
0.35261506 -0.21252584 0.01682386 0.057919044 -0.0531424 0.11746104 -1.354609 -0.1229851
0.3031163 -0.06934891 -0.6997612 -0.29850906 0.049864154 0.24439807 0.06734897 -0.44468984
-0.57518315 0.11830027 0.040931612 0.10448901 -0.38490498 0.32499605 -0.42373747 0.45065546
0.10020205 0.008872484 0.08020566 -0.34309527 -0.6197134 -0.9489067 -0.5457025 -0.8317196
-0.40055013 -0.3673451 -0.4192736 -0.06192823 -0.4628735 0.20245126 -0.16538107 0.46809873
0.22996967 0.113032416 -0.34207934 -0.2844547 -1.0784632 0.10076266 0.0830646 -0.8954177
-0.040370878 0.20168786 -0.3115812 -0.5266374 0.19108205 -0.07125157 0.26776603 -0.23487242
-0.37320194 -0.07710685 0.057592023 0.04970352 -0.2471767 -0.5678084 0.45587644 -0.43461055
0.24176289 -0.26748392 0.020047026 0.050467186 -0.07462464 -0.07458667 -1.1934035 -0.1639394
0.0037771545 -0.08155827 -0.18897106 -0.02229303 -0.25793156 -0.22383009 -0.3492321 0.04434582
0.10049509 -0.111214966 -0.2471111 -0.0001622228 -0.37752396 -0.30418673 -0.55111384 0.16157408
-0.6991696 0.37270942 -0.039031528 -0.29036063 0.079530075 -0.06987906 -0.9431925 -0.08717689
-0.79207146 0.08021009 -0.0008805983 0.24522685 0.07540082 -0.31610814 0.11154375 0.2262487
0.17925376 -0.16068785 0.07803885 -0.0303526 0.10292604 -0.54905975 -0.7172186 0.002314785
-0.38754246 0.06622876 0.09173532 0.19356601 0.07679772 -0.13092506 0.42438105 0.03986477
0.3022563 0.22297628 0.047003224 0.18613893 0.0027474188 -0.6611352 -0.89785403 -0.3069403
0.16640858 0.04638575 -0.10847759 0.12401769 -0.028646674 -0.40887567 -0.24052434 -0.08137641
0.33657846 -0.09667512 -0.23096 -0.05587786 0.038641818 0.3211229 -1.0643439 -0.22721078
-0.05446241 -0.03589278 0.088379174 -0.19556499 -0.31113935 -0.7225174 -0.66894245 -0.5938893
0.026701758 0.017983299 -1.077924 -0.15253243 0.16541764 0.010180601 0.5328182 -0.4014058
-0.11749331 0.018094799 -0.13954298 0.007299897 -0.2568319 -0.0012561782 0.0488387 -0.02842928
-0.14900969 0.19267704 -0.004637173 0.0036160802 -0.87865674 -0.5566978 -0.5801907 -0.27748623
-0.03533577 -0.07252425 -0.05358709 -0.11704842 -0.28221878 0.17205991 0.5446941 0.3566724
-0.048241176 0.015175808 -0.043479107 -0.03064119 -0.028093247 -0.32122105 -0.029777355 -0.0053131036
-0.17690744 -0.22645973 -0.28429517 0.1673355 -0.30036336 -1.059023 -0.5050577 0.14187104
