tensorflow_model.tflite (tflite, 38420 bytes, 5 tensors)

arith.constant f4 [1, 64]
0	0xbc832956	-0.016010921
1	0x3cb411cb	0.02198114
2	0xbdd6d787	-0.10490327
3	0x3e177b1b	0.14793055
4	0xbbf6080e	-0.0075082844
5	0x3c4275be	0.011868892
6	0x39834ca8	0.0002504338
7	0x3e5d2711	0.21596934
8	0xbc42725e	-0.011868088
9	0x3e09a37a	0.13441268
10	0xbccf2196	-0.02528457
11	0xbe2395a6	-0.15975055
12	0x3dcc563c	0.099773854
13	0xbd9cf5ad	-0.076640464
14	0x3e2275c7	0.15865241
15	0xbb0bf8dd	-0.002135805
16	0x3d8a0e27	0.067409806
17	0x3c567794	0.013090033
18	0x3ca6c4fb	0.0203576
19	0xbea35a0b	-0.31904635
20	0x3c8b7e34	0.017027952
21	0x3cd6c7ed	0.026218379
22	0xba82b692	-0.0009972623
23	0x3e22d759	0.15902461
24	0xbd653382	-0.055957325
25	0x3e56ae4d	0.20964928
26	0xbb6ad4a4	-0.003583231
27	0xbd6fd01f	-0.05854809
28	0xbd5c8b60	-0.053843856
29	0xbe742e6e	-0.23845837
30	0x3e1dc91c	0.15408748
31	0xbc7460ff	-0.014915704
32	0x3cebf87e	0.028805014
33	0xbcb4b420	-0.022058547
34	0x3c1a6109	0.009422549
35	0x3cf039d9	0.029324459
36	0xbe8cd98a	-0.2750972
37	0x3e4c8604	0.19972998
38	0xbcfce862	-0.030872528
39	0xbc18e1df	-0.009331196
40	0x3e5d7a6e	0.21628734
41	0x3c1b4da4	0.00947896
42	0x3e7e70e4	0.24847752
43	0x3e11ac51	0.1422589
44	0x3ebad148	0.36487794
45	0x3e1ee534	0.15517122
46	0xbba0e733	-0.0049103736
47	0x3e44ef09	0.1923181
48	0xbab614d9	-0.0013891711
49	0xbdacff68	-0.084471524
50	0x3d4a5505	0.049397487
51	0x3b382825	0.00281001
52	0xbc08c7bf	-0.008348404
53	0xbcf35943	-0.02970565
54	0xbba16246	-0.004925045
55	0x3e239516	0.1597484
56	0x3c29a3b2	0.010353969
57	0x3cf5977d	0.029979462
58	0xbc0d972e	-0.008642001
59	0xbbac6bbb	-0.005261866
60	0x3e3231ed	0.17401858
61	0xbde5426b	-0.11194309
62	0x3e0463af	0.12928651
63	0xbc95ddb5	-0.018294195

arith.constant1 f4 [64, 128]
0	0xbc924747	-0.017856253
1	0xbdb0464b	-0.08607157
2	0xbe85c497	-0.2612655
3	0xbdfd243a	-0.12360425
4	0xbe29102b	-0.16510074
5	0x3e6369f7	0.22208391
6	0x3e5ada21	0.21372272
7	0x3dd5fe13	0.104488514
8	0xbdbfabe2	-0.09358956
9	0xbe53d501	-0.20686723
10	0xbebfe9bc	-0.37483013
11	0x3dde9a63	0.10869291
12	0xbca10cc5	-0.01965941
13	0xbda043a3	-0.07825401
14	0x3e16b1cc	0.14716262
15	0xbe3af4d1	-0.18257453
16	0xbe385308	-0.18000424
17	0xbee6e3c6	-0.45095652
18	0xbcc1f9c8	-0.023678675
19	0x3e368f16	0.1782802
20	0xbe102b1d	-0.14078946
21	0x3cd4dc7d	0.025984043
22	0x3e1a7ecc	0.15087432
23	0xbe865989	-0.26240185
24	0xbed2a6da	-0.41142923
25	0x3e7dcfe4	0.24786335
26	0x3de12c82	0.10994817
27	0xbe05f2fe	-0.13080975
28	0xbd4fbd1c	-0.050717458
29	0xbe802ca6	-0.25034064
30	0x3d9c6b2f	0.07637631
31	0xbe6e5f82	-0.23278621
32	0x3c36bbe5	0.011153196
33	0xbda73bcb	-0.081657015
34	0xbd02fad7	-0.0319775
35	0xbe659de5	-0.22423513
36	0xbd4be8d7	-0.0497826
37	0xbe7ce717	-0.24697529
38	0xbdf90d5b	-0.121607505
39	0x3e997039	0.29968432
40	0xbe207057	-0.15667854
41	0x3b577b75	0.0032879983
42	0xbd63f1ef	-0.055650648
43	0xbe0bcd27	-0.13652478
44	0x3dee7e22	0.11645152
45	0xbdac659c	-0.08417818
46	0xbe4c97d6	-0.19979796
47	0xbd9886f1	-0.07447613
48	0xbdb3276c	-0.087477535
49	0xbda0e227	-0.07855635
50	0xbc4c24ec	-0.012459975
51	0xbe085f7d	-0.13317676
52	0xbd01299d	-0.031533826
53	0x3e12ef38	0.14349067
54	0x3e8aef43	0.27135667
55	0xbe47856f	-0.19484495
56	0xbdc0bf57	-0.09411495
57	0xbe5520f0	-0.20813346
58	0x3ddbc48a	0.10730846
59	0xbe57b048	-0.2106334
60	0x3c0afd00	0.008483171
61	0xbee7c15e	-0.45264715
62	0xbe0e1254	-0.13874179
63	0x3cce1e2c	0.025160871
64	0xbca24ec9	-0.019812958
65	0xbe102bc0	-0.1407919
66	0x3bd4dc68	0.006496001
67	0xbd8e7cda	-0.06957407
68	0xbe92f5f8	-0.28703284
69	0xbd8792ec	-0.0661982
70	0xbd0ac5cc	-0.03388004
71	0xbe0d5a2b	-0.13803928
72	0xbdc000f4	-0.09375182
73	0xbe3ada56	-0.18247351
74	0xbda4ed5d	-0.08053086
75	0x3cf6da2a	0.030133326
76	0x3d0378f6	0.03209778
77	0xbe6cec48	-0.23137009
78	0x3e10b59d	0.1413178
79	0xbe03288c	-0.12808436
80	0xbd8680c8	-0.06567532
81	0x3d20292f	0.039101776
82	0xbe93bfe2	-0.28857332
83	0xbe0fd68c	-0.14046687
84	0xbe0a4bc4	-0.13505465
85	0x3c3adc63	0.011405083
86	0xbe09d0a3	-0.13458495
87	0xbd2fce7e	-0.042921536
88	0xbe68548c	-0.22688502
89	0xbd11ef4b	-0.0356286
90	0xbe79fe44	-0.24413401
91	0xbee1e198	-0.44117427
92	0xbd12bbe8	-0.035823733
93	0xbe058a99	-0.13041152
94	0x3e23aeb2	0.1598461
95	0xbd2b484c	-0.041816995
96	0xbcce08c1	-0.025150659
97	0xbcf573f0	-0.02996251
98	0xbe8093a3	-0.25112638
99	0xbd371263	-0.04469527
100	0xbe281ab8	-0.16416442
101	0x3d99c790	0.07508767
102	0x3e1cf847	0.15329085
103	0xbdcbdb63	-0.09953954
104	0xbd015667	-0.03157654
105	0x3d59fc12	0.05321891
106	0xbe0f992e	-0.14023277
107	0xbd9a38c9	-0.07530362
108	0xbe7790b0	-0.24176288
109	0xbd7867da	-0.060645916
110	0xbe680e56	-0.22661719
111	0xbe442e52	-0.19158295
112	0x3e04040a	0.12892166
113	0xbe39bf42	-0.18139365
114	0xbe352c38	-0.1769265
115	0x3c9f62a7	0.01945622
116	0x3dcf4df6	0.10122292
117	0xbdba9404	-0.09110263
118	0xbe7b0d2c	-0.24516743
119	0x3e0c05a3	0.13674025
120	0xbe7e8709	-0.248562
121	0x3e370b9d	0.17875524
122	0xbe43c03b	-0.19116299
123	0x3e2f7aba	0.1713666
124	0xbdd4e60f	-0.10395443
125	0xbdfcdfa9	-0.12347347
126	0xbe1d7057	-0.15374885
127	0xbe392362	-0.18079904
128	0xbdb1e774	-0.08686724
129	0xbe16cf94	-0.14727622
130	0xbc183e2a	-0.009292165
131	0x3cc83261	0.024438085
132	0xbe0b9317	-0.13630329
133	0xbd1d704b	-0.03843717
134	0x3e0a985b	0.13534681
135	0xbe44b915	-0.19211228
136	0xbbf44100	-0.0074540377
137	0x3c59f255	0.013302405
138	0xbce17702	-0.027522568
139	0xbe12ceb0	-0.14336658
140	0xbe1bdd51	-0.15221144
141	0x3dc1a4ae	0.09455238
142	0x3cd7b032	0.026329134
143	0xbe3f1597	-0.1866058
144	0xbc7d5f4b	-0.015464614
145	0xbccf71da	-0.025322843
146	0xbdae648f	-0.08515274
147	0x3d5021c0	0.050813437
148	0x3d905ec2	0.070493236
149	0xbd5adda6	-0.053434037
150	0x3c596774	0.013269294
151	0xbdfa8a05	-0.122333564
152	0xbe16885e	-0.14700457
153	0x3dd95ca4	0.10613373
154	0xbd917a74	-0.07103434
155	0xbe6d24bb	-0.23158543
156	0xbde87e48	-0.11352211
157	0xbe1e6582	-0.1546841
158	0xbdf9d8e3	-0.12199571
159	0x3d8cfa28	0.06883651
160	0x3d377c03	0.044796
161	0x3c2133f7	0.00983905
162	0xbe3353aa	-0.17512384
163	0x3dd26fda	0.1027524
164	0xbd8ea12d	-0.069643356
165	0xbe0bef53	-0.13665514
166	0xbe029cf0	-0.1275518
167	0xbe0140e9	-0.12622418
168	0xbe50ab52	-0.20377854
169	0xbcfc75e5	-0.030817935
170	0xbe56d6e1	-0.20980407
171	0xbda9ad4d	-0.082850076
172	0xbd3b1244	-0.045671716
173	0x3ddf68c4	0.10908654
174	0xbe761095	-0.24029763
175	0x3dca9212	0.09891142
176	0xbe0d3bcb	-0.1379234
177	0x3d039612	0.03212554
178	0xbbf12ad3	-0.0073598414
179	0x3dac1e6c	0.0840424
180	0x3e178bd6	0.14799437
181	0xbe1e3425	-0.15449579
182	0xbe325f1d	-0.17419095
183	0xbdac04a0	-0.0839932
184	0x3d84364b	0.06455668
185	0x3d6fa002	0.058502205
186	0x3dc6a7e0	0.09699988
187	0xbe02e5a7	-0.12782918
188	0xbd812fed	-0.06307969
189	0xbd6fbbdd	-0.05852877
190	0xbe35a117	-0.17737232
191	0x3d7ae86b	0.061256807
192	0x3da33386	0.07968812
193	0x3ab461a7	0.0013762013
194	0xbe475589	-0.19466223
195	0x3c7c0aac	0.015383404
196	0x3d28c9cc	0.041208073
197	0xbe623c51	-0.22093321
198	0xbcba9aab	-0.02277883
199	0xbd863fee	-0.06555162
200	0xbe55b21a	-0.20868722
201	0xbc9101ff	-0.017701147
202	0x3d250e53	0.040296864
203	0xbdee4179	-0.11633582
204	0xbcbb0317	-0.022828622
205	0xbd96cacc	-0.07362899
206	0xbe2f505d	-0.171205
207	0xbe36b599	-0.17842712
208	0xbdacb535	-0.08433
209	0x3dedfe7e	0.11620806
210	0x3ddafb9e	0.106925234
211	0x3de51a8c	0.11186704
212	0xbe034cda	-0.12822285
213	0x3be3a738	0.0069474243
214	0x3da1c42d	0.07898746
215	0x3c12a09c	0.008949425
216	0x3da9e859	0.0829627
217	0x3de27c1b	0.110588275
218	0x3dfb59b3	0.12272968
219	0xbdab1983	-0.08354475
220	0xbd357ace	-0.04430657
221	0x3dae7d3a	0.08519979
222	0xbc5f0d3d	-0.013613996
223	0x3c0cbab6	0.008589437
224	0x3d7c01dc	0.06152521
225	0x3dd81e8e	0.10552703
226	0xbd590db8	-0.0529916
227	0xbda40192	-0.08008112
228	0x3d50f55e	0.05101525
229	0x3d8cd897	0.06877249
230	0xbe196b84	-0.1498242
231	0xbe1d26c2	-0.15346816
232	0x3d82fa79	0.0639543
233	0x3e0c990c	0.13730258
234	0x3c8c8831	0.017154785
235	0x3d75193a	0.05983851
236	0xbe29e9f4	-0.16593152
237	0xbe2ce748	-0.16885102
238	0x3d29ccdf	0.041455146
239	0xbd5d5111	-0.05403239
240	0xbc9689aa	-0.01837619
241	0xbdd185e0	-0.10230613
242	0xbda95e8d	-0.08269987
243	0xbd929a8b	-0.07158383
244	0x3d454c0a	0.04816822
245	0x3d3391ce	0.043840222
246	0x3d6262a6	0.05526986
247	0xbc5325e0	-0.012887448
248	0xbe3c6d45	-0.18401058
249	0xbe0a4a03	-0.13504796
250	0xbe5d650b	-0.21620576
251	0xbdf0be26	-0.11755018
252	0xbdc298f5	-0.095018305
253	0x3d272759	0.04080901
254	0xbd98f3fd	-0.07468412
255	0x3c5bc4dd	0.013413635

sequential_1/dense_1_2/BiasAdd/ReadVariableOp f4 [64]
0	0xbe34093b	-0.17581646
1	0xbe093789	-0.13400091
2	0xbd5d21cb	-0.053987306
3	0xbe02a0d1	-0.12756659
4	0xbdf6c47b	-0.120491944
5	0xbe6770ce	-0.22601625
6	0xbd8765ae	-0.06611191
7	0xbe3be0e2	-0.18347505
8	0xbe0ffdb4	-0.14061624
9	0x3df33ed5	0.11877219
10	0xbdae42cc	-0.08508834
11	0x3e679903	0.22616963
12	0xbdef1951	-0.116747506
13	0x3c052580	0.0081266165
14	0x3d9227da	0.07136507
15	0xbddb7549	-0.1071573
16	0xbde1c923	-0.11024692
17	0xbd854c54	-0.06508699
18	0xbdfeb879	-0.12437529
19	0x3edf0b43	0.4356328
20	0xbe39cffd	-0.18145747
21	0xbe2e07dd	-0.16995187
22	0xbdad2f70	-0.084563136
23	0xbe08df2a	-0.1336638
24	0x3dce5ebf	0.10076665
25	0xbc935d60	-0.01798886
26	0x3d12cc98	0.035839647
27	0xbe632dc2	-0.22185424
28	0x3e091f88	0.13390934
29	0x3e0d4ecd	0.13799591
30	0xbdf83038	-0.12118572
31	0xbea8fd0a	-0.33005553
32	0xbe4ca756	-0.19985709
33	0xbdcb83d9	-0.09937257
34	0xbe025c11	-0.12730433
35	0xbe2d314d	-0.16913338
36	0x3e8d5f20	0.27611637
37	0xbe154aee	-0.14579365
38	0xbd82ba70	-0.063832164
39	0xbd6bb55b	-0.057546
40	0xbd81d126	-0.0633872
41	0xbe07b067	-0.13250886
42	0xbd80110e	-0.06253253
43	0xbe29bd75	-0.16576178
44	0xbe6557f5	-0.22396834
45	0xbdc2ca6d	-0.09511266
46	0xbd2e599a	-0.04256592
47	0xbddf6734	-0.10908356
48	0xbd933804	-0.071884185
49	0xbcad3225	-0.021142075
50	0xbe19df00	-0.15026474
51	0xbe1be8fd	-0.15225597
52	0xbe49583d	-0.19662566
53	0xbe0b1c31	-0.13584973
54	0xbe390eee	-0.18072101
55	0xbe2ce331	-0.16883542
56	0xbde2efce	-0.11080895
57	0xbe06a37b	-0.131483
58	0xbe8b4c5d	-0.27206698
59	0xbe85a007	-0.26098654
60	0xbe261c02	-0.16221622
61	0x3d58ea0a	0.052957572
62	0xbdb135cb	-0.08652838
63	0xbdcd9be3	-0.10039499

sequential_1/dense_1/BiasAdd/ReadVariableOp f4 [128]
0	0x3c41c458	0.011826597
1	0x00000000	0.0
2	0x3e872ee0	0.2640295
3	0xbf03c2cf	-0.5146913
4	0xbebd2ec2	-0.36949736
5	0x3e47815f	0.19482945
6	0xbd2e7211	-0.04258925
7	0x3e8990b1	0.26868203
8	0xbcf120b1	-0.029434534
9	0xbbbec58e	-0.00582189
10	0xbeba9f1c	-0.36449516
11	0xbd87fcb4	-0.06639996
12	0xbf4e01a6	-0.80471265
13	0xb9ee1f06	-0.00045418012
14	0xbeac3325	-0.3363277
15	0xbe1b6160	-0.15173864
16	0xbe810691	-0.25200322
17	0xbe2ee40a	-0.17079177
18	0xbe8102b0	-0.25197363
19	0x3eb13e61	0.34617904
20	0xbd9b72bf	-0.075902455
21	0xbe00e40d	-0.12586994
22	0x3c401fd6	0.01172634
23	0x3d354082	0.044250973
24	0xbe8dca65	-0.27693477
25	0xbe2021b8	-0.15637863
26	0x3e2264e4	0.15858799
27	0xbeae101a	-0.3399666
28	0xbee7b056	-0.4525172
29	0x3e3fb3a1	0.18720867
30	0xbe46b012	-0.19403103
31	0xbea0a0e1	-0.3137274
32	0xbb57c26a	-0.0032922276
33	0xbe372210	-0.17884088
34	0xbd855b62	-0.065115705
35	0xbe3d1c20	-0.1846776
36	0xbc51dc2e	-0.012808843
37	0xbda39a4b	-0.079884134
38	0xbf29ef2b	-0.66380566
39	0xbe95adb9	-0.29234102
40	0xbed4fd8b	-0.41599688
41	0xbe8c0f53	-0.2735544
42	0xbe5607d8	-0.2090143
43	0xbdc3d4a5	-0.09562043
44	0x00000000	0.0
45	0x3dc636b0	0.096783996
46	0xbef47492	-0.47745186
47	0xbd7df713	-0.062003206
48	0xbe91def0	-0.284904
49	0xbd090a24	-0.033456936
50	0xbe2ccb6c	-0.16874474
51	0xbe6d7a93	-0.2319129
52	0xbd91ab1e	-0.07112716
53	0xbe423637	-0.18965994
54	0xbe86422c	-0.2622236
55	0xbba4ed0f	-0.0050331424
56	0xbd183a22	-0.037164815
57	0xbe95ca0f	-0.2925572
58	0xbe4ba6a9	-0.19887795
59	0xbe7961db	-0.24353735
60	0x3e8958fd	0.26825705
61	0xbe9dec85	-0.30844513
62	0xbe102c07	-0.14079295
63	0xbd23dc38	-0.04000494
64	0xbc8dc530	-0.01730594
65	0xbe9f6ace	-0.31136173
66	0xbee55072	-0.44787937
67	0xbce4cb9c	-0.02792912
68	0xbeca5b4d	-0.39522782
69	0xbe0e6b56	-0.13908133
70	0xbe8621ba	-0.26197606
71	0x00000000	0.0
72	0xbdb4d891	-0.08830369
73	0xbe07109d	-0.13189931
74	0x3d89e93f	0.06733941
75	0xbda8cee2	-0.08242585
76	0x3e632392	0.22181538
77	0xbcf50854	-0.029911198
78	0xbdaf868d	-0.085705854
79	0xbee296f1	-0.44255784
80	0x3c9011e2	0.017586652
81	0xbde4ea55	-0.11177508
82	0xbd2ea52f	-0.042638
83	0xbe43ab29	-0.19108261
84	0xbf0035ff	-0.5008239
85	0xbcc957d6	-0.024578016
86	0xbe00286d	-0.12515421
87	0xbdb86a12	-0.09004606
88	0xbe204439	-0.15651025
89	0xbcf191d2	-0.029488478
90	0xbb44886f	-0.0029988547
91	0xbe885711	-0.26628926
92	0x3ca9ae76	0.020713072
93	0xbea82221	-0.32838538
94	0xbe9ce30f	-0.30641982
95	0xbded0e40	-0.115749836
96	0xbe232c76	-0.15934929
97	0xbebdd79c	-0.3707856
98	0x3b474c07	0.0030410306
99	0xbdabc6c9	-0.08387525
100	0xbe026701	-0.12734605
101	0xbe2fb210	-0.17157769
102	0x00000000	0.0
103	0xbddc8db2	-0.10769214
104	0xbc7954e4	-0.015217993
105	0xbe1962c5	-0.14979084
106	0xbe1b4976	-0.15164742
107	0xbdae95b7	-0.085246496
108	0x3ea273ef	0.31729075
109	0xbeaef710	-0.3417287
110	0xbe7d1e86	-0.24718675
111	0xbc93a9df	-0.018025337
112	0xbea45c90	-0.3210187
113	0xbd6f5d8c	-0.058438823
114	0xbc0b1025	-0.008487736
115	0x3d8816ca	0.06644972
116	0x3e6b3523	0.22969489
117	0xbd93f822	-0.07225062
118	0xbdc4e25a	-0.09613486
119	0x00000000	0.0
120	0xbe82333b	-0.2542971
121	0xbcd4b846	-0.025966775
122	0xbb09e3f1	-0.0021040405
123	0xbe8cb34a	-0.27480537
124	0xbcc92c78	-0.024557337
125	0xbe85992b	-0.2609342
126	0x3e879326	0.26479453
127	0x3ea1bc06	0.31588763

sequential_1/dense_1/MatMul f4 [128, 5]
0	0xbdc0b49c	-0.094094485
1	0xbec4971e	-0.38396543
2	0x3eb33cb9	0.35007265
3	0xbec065f2	-0.37577778
4	0xbd84fdbd	-0.06493709
5	0xbcaeaa98	-0.02132158
6	0xbd679a80	-0.056543827
7	0xbe18c64d	-0.14919396
8	0xbdf9aed4	-0.12191549
9	0xbe493724	-0.1964994
10	0x3e9c2e52	0.3050409
11	0x3c0edc23	0.008719477
12	0xbe8c2ee9	-0.2737954
13	0xbdb75751	-0.08952201
14	0xbf9fa3cb	-1.2471861
15	0x3e41882c	0.18899602
16	0x3c131e2f	0.008979364
17	0xbe0cc2c7	-0.13746177
18	0xbcca84d7	-0.024721546
19	0xbf39f0db	-0.7263314
20	0xbf1036e0	-0.5633373
21	0xbf0cb1f3	-0.5495903
22	0x3bd05eaa	0.006358941
23	0x3e1687dc	0.14700264
24	0xbeaace09	-0.33360317
25	0xbda08b09	-0.07839019
26	0xbe679ed0	-0.22619176
27	0xbe745ae0	-0.23862791
28	0xbe657292	-0.22406986
29	0xbe42ef6d	-0.19036646
30	0xbc750a74	-0.0149561055
31	0xbee1b0e1	-0.4408026
32	0x3ed47257	0.41493484
33	0xbf3f89f1	-0.74819857
34	0x3eaa20f5	0.3322827
35	0x3d384b95	0.044993956
36	0xbe99dec7	-0.30052778
37	0xbf2937f5	-0.6610101
38	0xbf0b851b	-0.5449998
39	0x3e520801	0.20510866
40	0xbc0972a3	-0.008389148
41	0xbd43d2f7	-0.047808614
42	0xbe9e71f4	-0.30946314
43	0xbea781fc	-0.32716358
44	0xbf007094	-0.5017178
45	0xbf307003	-0.68920916
46	0xbf004878	-0.5011058
47	0x3e529bf6	0.20567307
48	0xbd80d8b8	-0.06291336
49	0x3f1337b3	0.57506865
50	0x3eaa8661	0.33305648
51	0x3d1a6e7f	0.037703034
52	0x3d8fb189	0.07016284
53	0x3d97a12e	0.074037895
54	0xbe86d833	-0.26336822
55	0xbd97a0d3	-0.07403722
56	0x3b4afd31	0.0030973668
57	0xbe83737b	-0.25674042
58	0xbe177548	-0.14790833
59	0xbedc487d	-0.43024054
60	0x3e82daf3	0.2555767
61	0x3d44a213	0.04800613
62	0xbe1cc2f5	-0.15308745
63	0xbc581373	-0.013188231
64	0xbf43d673	-0.764991
65	0xbd83fa95	-0.06444279
66	0xbd74bbdb	-0.059749465
67	0xbd505971	-0.050866548
68	0xbdf77bcd	-0.1208416
69	0xbdbf22cc	-0.09332809
70	0x3c38d74c	0.0112817995
71	0xbd8d441d	-0.06897757
72	0x3e335d33	0.17516021
73	0xbe6a2f73	-0.22869663
74	0xbd081e03	-0.033231746
75	0x3ea7c702	0.32769018
76	0x3d350250	0.04419166
77	0xbe9d66bf	-0.30742452
78	0xbe20b542	-0.15694144
79	0xbfa18510	-1.2618732
80	0xbdceef08	-0.10104185
81	0xbdf85825	-0.12126187
82	0xbeb06d11	-0.3445821
83	0x3d2483e9	0.04016486
84	0xbf05c0d1	-0.5224734
85	0xbf0b1b45	-0.54338485
86	0xbd0c8634	-0.034307674
87	0x3dde76aa	0.10862477
88	0xbebd53c3	-0.36977968
89	0x3d67dbcb	0.056606095
90	0x3d1f8aa2	0.03895057
91	0x3d1809dd	0.03711878
92	0x3d9a2b32	0.0752777
93	0xbf5aee64	-0.85520005
94	0x3f26d885	0.6517413
95	0xbe1ebbc2	-0.15501311
96	0x3d42bc7c	0.047543034
97	0xbf5331d6	-0.8249792
98	0xbed9af0b	-0.4251636
99	0xbf6eaec8	-0.93235445
100	0xbd3bc1af	-0.045839008
101	0xbca895b2	-0.020579193
102	0xbc2218b5	-0.009893586
103	0x3c48e316	0.012261173
104	0xbd765687	-0.060141113
105	0xbc601408	-0.013676651
106	0xbe4595f3	-0.19295482
107	0x3d08062f	0.033209022
108	0x3c794739	0.015214735
109	0xbd35b26a	-0.044359602
110	0xbcdd5192	-0.027016435
111	0xbf03887a	-0.5138012
112	0x3ed7827b	0.42091736
113	0xbf18cb99	-0.59685665
114	0x3e9bd914	0.30439055
115	0xbd068b6c	-0.032847807
116	0xbdc04075	-0.09387294
117	0xbe5b3d99	-0.21410216
118	0xbe2f2b99	-0.17106475
119	0x3ee2edbf	0.4432201
120	0xbec5ebdd	-0.38656512
121	0x3e258cd9	0.1616701
122	0x3db1dc94	0.0868465
123	0x3e02e673	0.12783222
124	0x3e1db114	0.15399581
125	0x3cc8604e	0.024459984
126	0xbe6f5b00	-0.23374557
127	0xbda09f02	-0.07842828
128	0xbe0cd129	-0.13751663
129	0xbdfe2b45	-0.12410597
130	0xbe54058b	-0.2070524
131	0xbdfd5703	-0.12370112
132	0xbe10bdf6	-0.14134964
133	0xbe698225	-0.22803552
134	0xbe573fdf	-0.21020459
135	0x3e232903	0.15933613
136	0xbeaa0428	-0.33206296
137	0xbe1ccdca	-0.15312877
138	0xbdbfb916	-0.09361474
139	0xbed1b010	-0.40954638
140	0x3e5952f0	0.21223044
141	0xbda42461	-0.08014751
142	0xbe09a4c7	-0.13441764
143	0xbd960383	-0.073248886
144	0xbf1e9515	-0.6194623
145	0x3e853e2e	0.26024002
146	0x3c9c1488	0.019052759
147	0xbf09566f	-0.5364751
148	0xbdbf9ddd	-0.09356282
149	0xbf8e3381	-1.1109468
150	0xbe8aa2eb	-0.27077422
151	0x3c6311ce	0.013859225
152	0xbca8d435	-0.020609
153	0xbdad1a31	-0.08452261
154	0x3d9b6137	0.07586902
155	0xbed66f97	-0.4188201
156	0x3c0a1e30	0.008430049
157	0x3e0996b2	0.13436392
158	0xbdfa3f55	-0.12219111
159	0x3db4fd90	0.08837426
160	0xbdb047f5	-0.08607475
161	0xb91ec78b	-0.0001514239
162	0xbdadaa51	-0.08479751
163	0xbcc4e163	-0.024033254
164	0xbed775be	-0.42082018
165	0x3c8ff678	0.01757358
166	0xbe17e554	-0.14833575
167	0x3e76ed9d	0.2411408
168	0xbf3dd422	-0.74151814
169	0x3eb1ed45	0.34751335
170	0xbe3de2a7	-0.18543492
171	0xbe47218d	-0.19446392
172	0xbd08e60a	-0.033422507
173	0x3c19fc0e	0.009398473
174	0xbd8682f7	-0.06567948
175	0x3d335d4d	0.04379015
176	0xbd23a96f	-0.039956506
177	0xbee65cee	-0.44992775
178	0xbe433347	-0.1906253
179	0xbf692f35	-0.9108766
180	0xbc533590	-0.012891188
181	0xbdcfe39d	-0.10150836
182	0x3bd3f866	0.0064688204
183	0xbcf45e08	-0.029829994
184	0xbd4a39b4	-0.049371436
185	0x3c7cbbbf	0.0154256215
186	0xbd9da6f2	-0.07697858
187	0xbe4011bb	-0.18756764
188	0xbd0480e6	-0.03234949
189	0xbf3787e8	-0.7169175
190	0x3e5f51ad	0.218085
191	0x3ad56493	0.0016280584
192	0xbeea2d43	-0.45737657
193	0x3dd26afe	0.102743134
194	0xbecf7654	-0.40519965
195	0x3e146276	0.14490685
196	0xbe3af592	-0.1825774
197	0x3e77795d	0.2416739
198	0xbf480af6	-0.78141725
199	0x3e59314b	0.2121021
200	0xbe6733bf	-0.22578333
201	0x3db80471	0.08985222
202	0xbee116d5	-0.43962732
203	0xbf22103f	-0.6330604
204	0x3e72e59b	0.237204
205	0x3dd3fe93	0.103512906
206	0xbd95cf3b	-0.07314917
207	0xbdf74dbe	-0.12075375
208	0xbe646804	-0.22305304
209	0xbee3ef3f	-0.44518468
210	0xbe72137c	-0.23640245
211	0x3ccf8eae	0.02533659
212	0xbba649b7	-0.0050747055
213	0xbe4814d0	-0.1953919
214	0xbbdbf052	-0.006711998
215	0xbe72cf93	-0.23711996
216	0x3e316125	0.17322214
217	0x3f0e6722	0.5562612
218	0xbe8862ab	-0.26637778
219	0xbc3ea93b	-0.011637027
220	0xbc91aa70	-0.017781466
221	0xbe1ef038	-0.15521324
222	0xbe4c071a	-0.19924584
223	0xbe11861a	-0.14211312
224	0xbe1b8520	-0.15187502
225	0x3dc63026	0.09677152
226	0xbd4fe5ae	-0.05075615
227	0xbdf25e96	-0.11834447
228	0xbebe53fc	-0.3717345
229	0xbf6bd057	-0.92114776
230	0x3e91f3c4	0.2850629
231	0x3d111654	0.035421684
232	0x3eb6d395	0.357083
233	0xbed6bd2d	-0.41941205
234	0xbdf4fd17	-0.119623356
235	0xbe31eac7	-0.17374717
236	0xbdf851c3	-0.1212497
237	0x3d523223	0.051317345
238	0xbb94fd83	-0.0045468225
239	0xbe10e0ea	-0.14148298
240	0x3ea2cb17	0.3179557
241	0xbd5c2409	-0.053745303
242	0xbd54b648	-0.05193165
243	0x3d6740c1	0.05645824
244	0xbf88f239	-1.069892
245	0xbe9a2410	-0.30105639
246	0x3b38020e	0.0028077397
247	0xbebe7db2	-0.37205273
248	0xbdb6dced	-0.08928857
249	0xbbd6649f	-0.0065427567
250	0xbbdc6a2a	-0.006726523
251	0xbd32c312	-0.043643065
252	0xbe0d8112	-0.13818768
253	0x3cd99769	0.026561456
254	0xbbb4bb1d	-0.0055154697
255	0xbe7f4a71	-0.24930741
