tensorflow_model.tflite (tflite, 38932 bytes, 5 tensors)

arith.constant f4 [1, 64]
000000 6b 3b 1c 3e 2d 18 89 3e 70 69 04 bc 35 87 6d 3e
       0.15257041 0.26776257 -0.008081779 0.23196109
000010 59 05 6f 3e 89 42 51 3b a0 a6 31 3b 97 b8 da 3e
       0.23341884 0.0031930527 0.0027107373 0.42718956
000020 18 0e bc 3d 33 fa 8d bd 65 b3 a2 bc 75 9e 53 be
       0.09182376 -0.06932487 -0.019860933 -0.20665915
000030 38 6b c5 bc d7 d8 46 3e 62 f2 09 3d 87 72 06 3e
       -0.024098977 0.19418655 0.03367842 0.13129626
000040 df 75 e0 3b 5a fc 8f bb 69 f8 cf 3b 2a 79 74 3c
       0.006849989 -0.0043940963 0.0063467515 0.014921466
000050 c6 96 90 bd 73 25 9a be 6a 86 4f bd 8f 47 35 3e
       -0.07060008 -0.30106696 -0.050665297 0.17703079
000060 9c 8e d8 3c 44 86 51 3c bf 6f 4e bc 20 0a 68 3b
       0.026435189 0.012788359 -0.0125998845 0.0035406426
000070 6d c4 96 3e 11 12 49 be 1d 69 91 bc 4f f8 68 bb
       0.29446736 -0.19635798 -0.017750317 -0.0035548394
000080 69 22 e7 3d 6a b0 2f 3e 47 89 e5 bd 33 96 9b 3e
       0.1128586 0.1715714 -0.11207824 0.3038803
000090 25 d1 55 bc 81 4a 12 3d ef 28 a4 3c 59 c2 99 bc
       -0.013050352 0.035715584 0.02003905 -0.01876943
0000a0 21 bf 9f be d1 13 1b 3b 76 93 84 3c 56 89 cf bb
       -0.31200507 0.0023662935 0.016183596 -0.0063335104
0000b0 ca f3 06 be 45 a5 e4 bc 0f 10 22 3e 1e 98 25 3e
       -0.13178936 -0.027910838 0.15826438 0.1617131
0000c0 92 19 13 3b 2c 26 b6 bc 0d 31 94 bd 7f 9f 0f 3e
       0.002244566 -0.022234999 -0.07235918 0.14025687
0000d0 0a 24 18 3c 2e 5c 7c 3b c5 50 2b 39 ad a4 00 3c
       0.009285936 0.0038507092 0.0001633792 0.007851762
0000e0 66 c7 9d bb 1e d8 13 be f0 d3 09 be fd 70 52 bc
       -0.00481503 -0.14437911 -0.13459754 -0.012844321
0000f0 c9 06 5e be c5 3e 99 3c 31 35 66 3e f8 6d 00 be
       -0.21682276 0.018706689 0.22481228 -0.1254195

arith.constant1 f4 [64, 128]
000000 c4 23 19 be 29 0b 09 be 25 e2 f7 bd 32 4c dd 3d
       -0.1495505 -0.13383164 -0.121036805 0.10805549
000010 55 8b 03 3d 8d 82 13 3e 70 eb e7 bc d4 03 f3 3d
       0.0321153 0.1440527 -0.028310508 0.118659645
000020 02 1c e5 3d 4d 37 86 3d 72 a6 c8 3d 30 02 48 be
       0.11186983 0.065535165 0.09797372 -0.19532084
000030 2a b2 c7 bd 2b 9e 32 3e 67 9c 34 be 29 9c 24 be
       -0.09750779 0.17443149 -0.17637788 -0.16075195
000040 7e 68 80 3d 43 4c 9b bd 80 d4 48 bd 77 65 c6 bc
       0.0626993 -0.07582905 -0.04903078 -0.024218304
000050 00 16 61 bd 17 2e 12 be aa ef 33 be f8 95 8c bc
       -0.05495262 -0.14275394 -0.17571893 -0.017161354
000060 f0 4e 05 bc d8 a2 65 3d a8 79 c7 bd ef 8d c9 3d
       -0.008136496 0.056063503 -0.09740001 0.09841525
000070 44 3c 50 3d 4b 57 0e bd 4b 5d 96 bd 63 7e b6 3d
       0.050838724 -0.034751218 -0.07342013 0.08910825
000080 f1 3f 08 3e f6 44 a8 3d 50 8c a9 bc b0 c4 05 bd
       0.13305642 0.08216278 -0.020696789 -0.03265828
000090 be 9a 09 be 2a c2 c8 3c da 90 ea bd 17 c5 e7 3d
       -0.13437936 0.024506647 -0.114534095 0.11316889
0000a0 f1 1c 02 3e 8c 34 5c 3d 17 f9 30 be eb 17 c4 bd
       0.12706353 0.05376105 -0.1728252 -0.095748745
0000b0 b3 e7 dd bd 1a 3c 35 3d 8b 18 2e be d1 e6 de 3d
       -0.10835209 0.04424677 -0.1700155 0.108838685
0000c0 dc ec 21 3d 4b 90 3f be db 83 e4 3d c2 89 c2 3d
       0.039532527 -0.18707387 0.11157962 0.094989315
0000d0 2f 7a 3b be 22 b9 e3 3d 32 06 00 bd 44 b4 1a be
       -0.18308328 0.11119296 -0.03125591 -0.15107828
0000e0 d3 23 b8 ba 09 1c 82 bd 50 ab 6e 3d 05 64 da 3d
       -0.0014048762 -0.063530035 0.058268845 0.106636085
0000f0 ec fb 1f be 96 c5 a4 3d 20 23 c9 3b b7 da 35 be
       -0.15623444 0.08045499 0.0061382204 -0.17759214
000100 8d b4 53 3d a8 4e 26 3d 09 3a ba bd 51 74 1c 3c
       0.05168586 0.040602356 -0.090931006 0.009549216
000110 88 65 8c 3d 28 75 67 3d 7c 41 0f be d0 7a 87 bd
       0.06855303 0.056508213 -0.13989824 -0.066152215
000120 5e 5e 02 3e 8e 56 0a 3e 7d 7c d1 bd 30 a4 67 be
       0.1273131 0.1350958 -0.102288224 -0.22621226
000130 6e 94 be 3d 8d 18 63 bd 68 5c 05 be 00 08 5d bd
       0.093056545 -0.055443335 -0.13023531 -0.053962708
000140 39 01 09 3e 02 61 6f bd 03 be 17 be 45 0d 16 bd
       0.13379373 -0.058442123 -0.14818577 -0.03663375
000150 ee 8e eb bd 82 bb f1 bd 7c 44 32 be 95 78 1e be
       -0.11501871 -0.118033424 -0.17408937 -0.15475686
000160 03 78 20 3c f6 e7 ab 3d d5 43 c7 bd e7 ad d2 bd
       0.009794238 0.083938524 -0.09729735 -0.102870755
000170 f1 a0 0e 3e 20 d9 00 bc 00 c6 c7 3a d2 a8 79 3d
       0.13928582 -0.007864267 0.0015241504 0.060952015
000180 47 fe 11 3e bd ef 64 3d 69 28 1d be b1 f4 74 3d
       0.14257155 0.055892695 -0.15347447 0.05980367
000190 d0 2e 33 bd 5f 64 f2 3d a8 3f 94 bd cc 5a df bd
       -0.043745816 0.118355505 -0.07238704 -0.1090599
0001a0 a1 aa a5 3d d4 a1 7e bd 5c 5f 28 be 58 19 cc bd
       0.080891855 -0.06216605 -0.16442627 -0.099657714
0001b0 b1 0a 34 be 63 07 37 3c 35 e7 fe bd 80 45 34 be
       -0.17582203 0.011171195 -0.12446443 -0.17604637
0001c0 ae 69 ed 3d 88 b0 b1 bd 27 a7 2b 3e f8 2c d9 bc
       0.115924224 -0.08676249 0.16762982 -0.0265107
0001d0 b4 dd 40 be 78 83 84 3d 74 43 03 be 38 d4 5d 3d
       -0.18834573 0.06470388 -0.128187 0.054157466
0001e0 70 00 92 3c 49 16 cf bd e2 58 fb bd c5 a8 07 be
       0.017822474 -0.101116724 -0.122728124 -0.13247974
0001f0 bc d6 01 be f9 3f d3 bd 20 21 06 3c 27 74 d8 3d
       -0.12679571 -0.10314936 0.008186609 0.10569029
000200 c0 d0 cb bc 76 29 37 be 24 fd 0e bf 3e 90 c4 3c
       -0.024879813 -0.1788691 -0.5585501 0.023994561
000210 0a 88 c7 bd be c3 25 be ed d1 16 bf 32 5b c3 bd
       -0.09742744 -0.16187951 -0.5891407 -0.095388785
000220 9a 08 8b be 2d 94 a6 bc ff 73 10 3d 25 59 fa bd
       -0.27155 -0.020334328 0.035266872 -0.12224034
000230 b9 28 4b bf a4 38 81 be f6 26 96 bd 83 c3 19 bf
       -0.7935901 -0.25238526 -0.0733165 -0.6006395
000240 51 e7 87 bc cc 3f 93 be af c3 79 3d fd 65 0d 3e
       -0.016589792 -0.2875961 0.060977634 0.13808437
000250 3a 79 35 be e5 88 0b bf 02 70 df be 81 83 02 be
       -0.17722026 -0.5450576 -0.43640143 -0.12745477
000260 60 f4 1f 3e 01 85 44 3e 87 c4 4c bc 15 24 0d 3d
       0.15620565 0.19191362 -0.012498028 0.03445824
000270 ce e6 dd 3c 0e 90 6c bc c6 6b f6 3b 3d 45 40 3e
       0.027087595 -0.014438642 0.007520172 0.18776412
000280 06 65 55 bd e9 f8 ed bd c6 0e 36 bd 98 47 02 bf
       -0.052098297 -0.116197415 -0.044447683 -0.50890493
000290 53 26 cd be 10 fc 02 3e 8a 99 ec bd 5c ba b4 3d
       -0.40068302 0.12791467 -0.11552723 0.08824608
0002a0 da ea 5e be 83 c7 3f bf 3a 0a 86 be 10 e1 34 bd
       -0.21769276 -0.74913806 -0.26179677 -0.04415995
0002b0 ce 04 b2 bd ff 92 6e bc 9b c1 b2 3e a1 10 33 bb
       -0.08692323 -0.014561414 0.34913334 -0.0027323144
0002c0 f0 2d 8a 3e 10 48 24 bb ef 65 fd bd d3 db d9 be
       0.26988173 -0.0025067367 -0.12372958 -0.42550525
0002d0 a6 9d 6e 3e 3c fb e8 be 95 5a 40 be cc 98 06 be
       0.23302326 -0.45504177 -0.18784554 -0.13144225
0002e0 5e 50 5d be f3 59 b6 bd 27 0f 1b 3e b1 c8 0a be
       -0.21612689 -0.08903875 0.15142499 -0.1355312
0002f0 2b 66 11 3d 34 fe d2 be a0 02 53 bf 30 b6 1c 3d
       0.035497826 -0.41209567 -0.8242588 0.038259685
000300 fa f4 cb bc d3 32 3c bd f5 b1 95 be 6a 42 df 3d
       -0.024897087 -0.045946907 -0.29237333 0.10901339
000310 4a f9 62 3d d5 f4 91 be 91 db 8a be 5a 2a c2 3d
       0.05541352 -0.28507105 -0.2712064 0.09480734
000320 9e e9 c2 bd 32 cc ad be 35 0b cd 3e 95 3d 17 bf
       -0.09517215 -0.3394485 0.40047613 -0.5907834
000330 bc 9f a5 bd f4 4f 4e be b2 e7 25 3e 51 28 59 be
       -0.080871075 -0.20147687 0.16201666 -0.21206786
000340 93 58 17 bf 85 43 78 bd b4 43 84 be 03 1a e0 3d
       -0.5911953 -0.060611267 -0.25832903 0.10942461
000350 ec 61 2d bf 30 70 c0 bd d4 3c 14 be 96 94 c4 bd
       -0.6772754 -0.09396398 -0.14476329 -0.09598653
000360 aa 28 6f 3d b6 01 f9 bd 77 c5 30 3e 32 af 1b 3d
       0.05838839 -0.121585295 0.17262827 0.038008876
000370 3e d4 97 be 7d 0d 45 be 60 f1 44 bf 97 dd a0 bd
       -0.29654115 -0.19243427 -0.7693081 -0.07854765
000380 14 29 6b 3d 70 cd de bd d9 56 13 bf cd 76 01 bc
       0.057412222 -0.10879028 -0.57554394 -0.0079018595
000390 7e 7b 2b bf 62 33 31 3b 03 77 2a be fe c4 e5 3c
       -0.6698531 0.0027038683 -0.16646962 0.028048035
0003a0 20 a8 af 3d 7a 10 82 bd 20 ae 3d bf 3b 03 8f be
       0.08576989 -0.06350799 -0.7409382 -0.27932152
0003b0 4a 94 ba bd 24 7f 2b 3e d5 5b e9 be 0a 64 61 bf
       -0.09110315 0.16747719 -0.45577875 -0.8804327
0003c0 26 47 8d 3e 25 84 60 be 07 1e 05 be 63 69 47 bc
       0.27593344 -0.21925409 -0.12999736 -0.012171122
0003d0 fe a5 db be 48 a0 27 bc f6 b0 95 bd b3 26 12 be
       -0.4290008 -0.010231085 -0.07309143 -0.14272575
0003e0 04 5b 99 be 7e c3 04 be 21 93 52 bd 2a 88 5e 3d
       -0.29952252 -0.129652 -0.051409844 0.054329075
0003f0 55 b0 fc be 53 dc 10 bf df a5 81 bd 14 59 92 be
       -0.4935328 -0.5658619 -0.063304655 -0.28583586

sequential_1/dense_1_2/BiasAdd/ReadVariableOp f4 [64]
000000 cc 02 78 bd d1 ee a7 3d da 0c c7 bd b5 f6 0a be
       -0.060549542 0.081998475 -0.09719248 -0.13570674
000010 66 76 48 bd bd 49 11 be 01 6b 59 bd e4 0d 19 be
       -0.04894104 -0.14188285 -0.053080563 -0.14946705
000020 8d 9f 0f be 71 d9 f2 bd 0e 74 16 be 88 27 61 3e
       -0.14025708 -0.1185788 -0.14692709 0.21987736
000030 9f 14 8c be e7 d9 f2 bd 5a 12 6b bd 99 27 28 be
       -0.27359483 -0.11857968 -0.05739055 -0.16421355
000040 3e af 8d bd 87 43 ae bd 2f cc 51 be 15 d9 8d bd
       -0.069181904 -0.085089736 -0.20488046 -0.06926171
000050 0e c3 9d 3e bd 4d 8d bd a9 cc d4 bd 94 86 0f be
       0.30812877 -0.06899593 -0.10390598 -0.14016181
000060 68 07 8f bd 1e 04 06 be 90 7b bf 3d 68 64 43 bd
       -0.069838345 -0.13087508 0.093497396 -0.047703177
000070 ec 72 f1 bd c6 18 86 3e f8 6a 9a be f8 14 95 bd
       -0.11789498 0.26190776 -0.30159736 -0.0727939
000080 38 2d e7 bd 50 20 12 be 53 08 18 3e 78 67 0d be
       -0.11287922 -0.14270139 0.14846925 -0.13809001
000090 1e bf 8b be 5a fd 2f be 53 3a 65 bd 36 e4 ad bd
       -0.27294248 -0.1718649 -0.055963825 -0.084907934
0000a0 ef b3 a6 3e 20 63 25 be 19 94 51 be 7a 4d 0e be
       0.32559153 -0.16151094 -0.20466651 -0.13896742
0000b0 42 0a ef bd 84 16 4d be 15 60 0c be cf fc 45 bd
       -0.116718784 -0.2002812 -0.13708527 -0.0483368
0000c0 c8 3f 70 be df ac 40 bd 6d 4c 28 be d3 f7 ba bd
       -0.2346183 -0.047039863 -0.16435404 -0.091293
0000d0 e4 54 09 be 27 98 67 bd f3 e2 8a be 6e ae 47 be
       -0.1341129 -0.05654159 -0.27126274 -0.19500133
0000e0 1c 8c b1 be 29 41 55 3e 70 4f 38 3c ff bc fe bc
       -0.34677207 0.20825638 0.011249408 -0.03109598
0000f0 da 24 89 3e f6 70 85 bd 03 13 a4 bc 91 bc 5e 3e
       0.26785928 -0.06515686 -0.020028597 0.2175162

sequential_1/dense_1/BiasAdd/ReadVariableOp f4 [128]
000000 eb bd 78 be b1 aa d2 bd 11 7e d2 3d ff 34 be bd
       -0.24291198 -0.10286463 0.102779515 -0.09287452
000010 7d a1 1b be d5 cc f7 bd bc 83 21 3e 9d 30 e2 be
       -0.15198322 -0.120996155 0.15772909 -0.44177714
000020 8b 2d 99 be 97 60 93 be 58 64 ab be 24 92 fa bd
       -0.2991756 -0.2878463 -0.33474994 -0.12234905
000030 ff f7 cc 3d 13 18 83 be 73 c4 70 be f6 72 4f be
       0.10008239 -0.25604305 -0.2351244 -0.20258698
000040 ae 13 74 be fc a1 e8 be 40 69 39 bd 7c 9a 97 be
       -0.23835632 -0.45436084 -0.04526639 -0.2961005
000050 24 40 c1 bd b6 be db bd 66 59 83 be 84 35 5f bd
       -0.09436062 -0.107297346 -0.25654143 -0.054494396
000060 e0 81 60 3e eb 53 86 bd e2 d8 db bd 3b 15 40 be
       0.21924543 -0.06558975 -0.107347265 -0.18758099
000070 03 2a f3 bd 56 1e 4a bd e7 86 36 bb a7 b9 a8 bd
       -0.118732475 -0.049345337 -0.0027851404 -0.082385354
000080 b7 a6 6f be 56 29 09 be f8 e0 78 be 60 75 90 be
       -0.2340344 -0.13394675 -0.24304569 -0.2821455
000090 9b 16 ba 3e 8b 47 ce bd e3 2f 4d be 9a ca 17 be
       0.36345372 -0.100722395 -0.20037799 -0.1482338
0000a0 69 c5 dc be 30 50 92 3e b2 72 b7 be 6b 6b 49 bd
       -0.43119362 0.28576803 -0.35829693 -0.049174707
0000b0 38 2d 5c bd d9 f7 9b be 8a df 86 3e 06 7f 10 be
       -0.05375406 -0.3046253 0.26342422 -0.14110956
0000c0 5c 60 ac be 60 87 95 be c6 1b 46 bd f2 2a d3 3d
       -0.33667266 -0.29204845 -0.04836633 0.103109255
0000d0 ba e9 d8 bc 4c 61 88 3e a9 3c 66 bd d2 95 75 be
       -0.026478637 0.26636732 -0.056210194 -0.23982933
0000e0 a7 8a c8 be 6b ba ce be 8a 84 17 be b4 25 c3 be
       -0.39168283 -0.403766 -0.14796653 -0.38114703
0000f0 2f 47 13 be 27 95 3e be a3 eb b3 be ee 59 93 be
       -0.14382623 -0.18611585 -0.35140714 -0.28779548
000100 a2 e0 c8 bd 85 7f ba bb 9d 5c 22 bf cc ec 88 bd
       -0.0980847 -0.005691471 -0.63422567 -0.066857904
000110 8a bc 0b bb 39 b8 a6 3e d8 e7 1d be 0e 0d f2 bd
       -0.0021322095 0.32562426 -0.15420473 -0.11818896
000120 9c 70 22 bd 79 1a 5f b9 4e ad 82 be 0b f0 84 be
       -0.039658174 -0.00021276799 -0.25522846 -0.25964388
000130 25 5b 63 be 4c f8 39 be af 9d 0c 3e 95 51 d6 bd
       -0.22202738 -0.18161124 0.13732027 -0.10464779
000140 5b 4e 52 be f3 47 86 ba f2 de f7 be bc c2 03 be
       -0.20537703 -0.0010244831 -0.4841228 -0.12867254
000150 59 02 1d 3d d2 15 2b bc 00 00 00 00 04 75 87 bc
       0.038332317 -0.010442214 0.0 -0.01653529
000160 5f 6b a9 be 34 b3 8b bd 86 ce 07 bd 2f 5f a0 bd
       -0.3308973 -0.0682129 -0.03315594 -0.07830655
000170 33 96 6b 3d 21 af 0a be bc 90 92 be e7 4d b6 be
       0.057516288 -0.13543369 -0.2862605 -0.3560631
000180 72 63 13 be 78 a9 b1 be 86 9d 95 be 01 01 4c be
       -0.14393404 -0.34699607 -0.29221743 -0.19922258
000190 79 c4 b8 bb 57 0b 3b bd 03 69 70 b9 f4 e5 da bd
       -0.0056386557 -0.04566511 -0.00022927304 -0.10688391
0001a0 54 a9 6e be 27 3b 22 3d ce c2 0d be 46 2c e0 be
       -0.23306781 0.039607193 -0.13843843 -0.43783778
0001b0 c6 f4 d9 be 6b e0 4a be 9c 72 f8 be d7 c8 e0 bd
       -0.4256956 -0.19812171 -0.4852494 -0.10975807
0001c0 80 5c 8d ba 3e e8 15 3d 00 00 00 00 75 87 46 bf
       -0.0010785013 0.036598437 0.0 -0.7755044
0001d0 d0 43 0e bf 66 24 17 be d7 1a 90 bd ac c5 69 bd
       -0.55572224 -0.14759979 -0.07036369 -0.05707328
0001e0 0a 97 31 bd 6e 81 0d be 51 bb 9b bd 56 31 cf bc
       -0.043356933 -0.13818905 -0.07604087 -0.02529208
0001f0 0d d8 11 bd 00 b8 21 b3 ae d8 ff 3c eb 50 7a be
       -0.035606433 -3.765308e-08 0.03123125 -0.2444493

sequential_1/dense_1/MatMul f4 [128, 6]
000000 48 20 7f be a1 a3 5f 3d c7 d9 85 be 30 0a 8d 3e
       -0.24914658 0.054599408 -0.26142713 0.27546835
000010 19 b4 2a 3d dd f4 cb 3d 35 e2 22 be 7c 52 84 be
       0.04167566 0.09958813 -0.15906604 -0.2584418
000020 9a 64 94 be 69 97 26 bd 16 f5 77 be cc 32 a1 3d
       -0.28983003 -0.04067174 -0.24214587 0.07871017
000030 2e fb 61 be 77 7e 50 be bb 0f b0 be 0c 16 4b be
       -0.22068474 -0.20360743 -0.34387 -0.19832629
000040 dd f0 10 be dc f9 61 3e 32 3b 11 be eb b6 0e be
       -0.14154382 0.2206797 -0.14182737 -0.13936965
000050 35 61 e1 3b 17 99 7f be ac b0 43 3d 55 24 40 be
       0.006878043 -0.24960743 0.04777591 -0.1876386
000060 4b 68 a1 be 65 3d 6a be b4 3b 4b be 7a 5f da bd
       -0.31524882 -0.22874983 -0.19846994 -0.10662742
000070 1a 13 16 3e b1 17 80 bb 65 ac 6b bd 46 a5 d6 3b
       0.14655724 -0.0039090742 -0.057537455 0.006550464
000080 34 cd ea bd b6 76 24 bd f5 94 5e 3d ef db e9 3b
       -0.11464921 -0.040152274 0.054341275 0.007136814
000090 74 ee b5 bd bf 7d 26 3d 6e 17 d8 be bd da 4d bf
       -0.08883372 0.040647265 -0.42205375 -0.80411893
0000a0 29 54 03 bf 0e 51 f8 be 11 2f c1 3e 02 87 b6 bd
       -0.51300293 -0.4849934 0.3773122 -0.089124694
0000b0 0b 02 52 3d 84 60 06 3e 12 f1 87 bf 30 82 a6 3d
       0.05127148 0.13122755 -1.0620444 0.081303
0000c0 33 f0 7e 3e 1f 76 04 bd 2c 60 0b bf 69 ba 03 bc
       0.24896316 -0.03233921 -0.5444362 -0.008040049
0000d0 27 17 71 bf fc db 0f 3c 35 9d 2e 3e 53 5a 9c 3c
       -0.9417595 0.008780476 0.17052157 0.019086039
0000e0 8e d2 b6 be c4 7b 1e be 1d c4 04 bf e2 19 8b be
       -0.35707515 -0.154769 -0.51861745 -0.27168185
0000f0 da 8b 31 3e 3a 63 09 be 64 6d f4 be a1 4b 14 be
       0.17338505 -0.13416758 -0.47739708 -0.14481975
000100 21 80 86 be 0e 52 13 3e 57 f4 d7 3d 0a a2 25 bf
       -0.2626963 0.1438677 0.10544651 -0.64700377
000110 43 29 54 bd 61 66 06 3e 97 25 0c 3f d4 d7 45 bf
       -0.051797163 0.13124992 0.5474486 -0.7728245
000120 9c 48 ad be aa 74 71 be 4d f9 fd be b3 c5 96 bd
       -0.3384446 -0.2357966 -0.49604264 -0.07361927
000130 3f bd 9f be 69 ab a4 3e 5c a0 db bc 1e 39 01 3d
       -0.3119907 0.32162026 -0.026809864 0.03154861
000140 6d 38 ce bd 0c ee 35 be 6f 59 33 be c0 62 87 bd
       -0.10069356 -0.17766589 -0.17514585 -0.06610632
000150 8e 13 41 be b9 26 c0 3c 82 e8 ed 3b 4c cc ad be
       -0.18855116 0.023455964 0.007260383 -0.3394493
000160 c7 b9 fc bd 92 15 77 be d7 84 05 bf 3b 75 dd be
       -0.12340122 -0.24129322 -0.5215582 -0.43253502
000170 86 44 43 3e b7 95 ab 3d d1 2a 1c 3d 8c c0 de 3e
       0.19069108 0.08378165 0.03812677 0.43506277
000180 c4 91 56 3e 23 e3 c5 be 89 d2 1f 3b 3c 17 70 be
       0.20954043 -0.38649854 0.0024386963 -0.23446363
000190 9f 07 52 be 2f 7d 3b be d5 f9 f4 3d 96 95 d6 3b
       -0.2051072 -0.18309473 0.11961714 0.0065485938
0001a0 a9 36 fe bd 90 1e 20 bf 30 8c 83 be da 90 9a be
       -0.12412769 -0.62546635 -0.25692892 -0.30188638
0001b0 88 e6 37 3e f8 e0 58 be 77 de 9d bd 8a 31 a4 3e
       0.17959034 -0.21179569 -0.077084474 0.32069045
0001c0 39 7b 1e 3f 39 fd d5 3e 57 91 0c 3d d3 8e ea bd
       0.6190677 0.41794756 0.034318294 -0.11453023
0001d0 81 1d 09 be 3e 1c 81 3d 3d 61 c0 be b7 dd 1f 3e
       -0.13390161 0.06304215 -0.37574187 0.15611921
0001e0 38 e9 cc 3b af b8 d7 bd 40 a1 98 be df a9 df bd
       0.006253388 -0.105332725 -0.29810524 -0.10921072
0001f0 06 74 33 be e3 8b 95 3d f3 e7 d2 3c af 0b c1 3d
       -0.17524728 0.07302072 0.025745368 0.094260566
000200 c3 fd 0f bf cb 07 7c bf f8 10 3c bf be 51 47 be
       -0.56246585 -0.9844939 -0.7346339 -0.19464776
000210 42 67 8e 3e 44 8c 7f bd bd 27 ee bd 7b 8a 86 3e
       0.27813154 -0.062389627 -0.11628673 0.26277527
000220 eb 77 04 bf b0 26 54 be b9 dc d1 bd a1 c0 d2 3a
       -0.5174548 -0.20717883 -0.10247178 0.0016079136
000230 cc ce 0e be b6 34 a6 bd 39 b9 65 be 54 b3 61 bd
       -0.13946074 -0.081155226 -0.22433938 -0.05510266
000240 5b c1 9a 3e 10 7f 8c 3d e0 91 b8 bd 34 1f 0b bf
       0.30225644 0.06860173 -0.090121984 -0.5434449
000250 b5 67 99 bf 43 2f ce bd 7e d0 43 be bf 43 6e be
       -1.1984774 -0.10067608 -0.19122502 -0.2326803
000260 96 4b cb bc 68 de 0b be 5d af 67 be 20 a2 81 3d
       -0.024816316 -0.1365906 -0.2262549 0.06329751
000270 09 b0 e5 bd 83 f3 f6 bd b3 9b 8b bd e9 30 00 be
       -0.11215217 -0.12058165 -0.06816807 -0.12518658
000280 c4 fe d4 3d 6d d0 0c be 23 15 8f be 74 fb d7 bd
       0.10400155 -0.13751383 -0.27945814 -0.10546008
000290 22 d9 1f be 17 f3 e5 3d f2 0e 04 3c bd 45 cd be
       -0.15610173 0.11228006 0.008060204 -0.4009227
0002a0 aa 5e 07 be 73 fa c7 be 3f 75 3d 3c 37 d5 30 be
       -0.13219705 -0.39058265 0.011563598 -0.17268835
0002b0 92 56 bd be 7b b5 19 3d 47 27 00 bf f9 d4 a4 be
       -0.3698011 0.03752659 -0.5005993 -0.32193735
0002c0 08 b4 65 be ec 2e 83 3e 22 67 8e be 17 84 ad 3e
       -0.22431958 0.25621736 -0.2781306 0.3388984
0002d0 d8 80 34 be 48 42 cf bc 30 79 8b 38 2b 09 31 bd
       -0.17627275 -0.02530016 6.6506094e-05 -0.043221634
0002e0 2d fa 2c bd ad 4d 2a be 4f 44 c1 bd f7 15 1b bd
       -0.042230774 -0.16631193 -0.09436857 -0.037862744
0002f0 23 e5 24 be 90 1a 12 3e 0f 38 b4 be 66 6e 8b 3e
       -0.16103034 0.14267945 -0.3519902 0.27232665
000300 1a 94 7a be c1 84 63 3c 6f cf 9e bd 01 8d bd 3d
       -0.24470559 0.0138866315 -0.077544086 0.0925541
000310 22 cb 1d 3b 5a 97 8b 3c c2 85 08 be 84 be 24 be
       0.0024077375 0.017039943 -0.13332275 -0.16088301
000320 4e a9 db bd ff a3 a5 3b 22 11 e4 3d 6c 53 f8 bc
       -0.10725652 0.0050549502 0.1113608 -0.030313216
000330 22 8b 3d bd 68 08 81 be ac ad 40 be 95 be 4e 3c
       -0.046275266 -0.25201726 -0.1881625 0.0126186805
000340 96 02 f9 3d 6d ee d3 3d 9c fa f3 bc fe 2c f8 3c
       0.12158696 0.103482105 -0.029782586 0.030294891
000350 40 e4 f6 be a8 61 44 bf 67 7b 28 bf 16 0e 6a be
       -0.48221016 -0.7671151 -0.658133 -0.22856936
000360 71 28 91 bd f5 61 ba bd 08 ff 92 be f9 24 f6 be
       -0.07087792 -0.09100715 -0.28710198 -0.48075083
000370 60 e0 cb 3e 5e 76 20 bd 81 93 4c 3a 51 87 f0 bd
       0.39819622 -0.039175384 0.0007803962 -0.117445596
000380 3a 9f 03 be fe 67 ef 3c df 2c 7b 3d 94 61 94 bd
       -0.12853709 0.029224392 0.06132209 -0.07245174
000390 66 22 78 bd ac db 60 bc 8a ee 90 3c 06 d0 a7 3d
       -0.06057968 -0.013724249 0.01769187 0.08193974
0003a0 5c 88 25 be ed d6 51 be c2 55 ad 3b a9 2e fa bd
       -0.16165298 -0.20492144 0.005289764 -0.12215931
0003b0 cc 01 67 3c 6e 7b 25 bd 85 bf 3e bd 34 11 73 3d
       0.0140995495 -0.040400915 -0.046569366 0.059342578
0003c0 84 03 85 3e c3 ff 27 3d cd cf 6c bd 2c 09 c8 be
       0.25979245 0.041015398 -0.05781536 -0.39069498
0003d0 71 a5 88 bf 17 52 60 3c f6 ba 00 bd 7b 72 f7 3d
       -1.0675489 0.013691447 -0.0314283 0.12082382
0003e0 c6 3b eb be 97 7d a3 bf 9d c4 81 bf 55 cc fd be
       -0.4594404 -1.2772702 -1.0138127 -0.49569955
0003f0 31 cb 45 3e ae ef 6d 3c d0 5b 32 3e 6a bb 54 be
       0.19315793 0.014522476 0.17417836 -0.20774618
