tensorflow_model.tflite (tflite, 38420 bytes, 5 tensors)

arith.constant f4 [1, 64]
00000000: 2a9c f63b 0b7f 24be 0820 b8bd 4b9f f93d
00000010: 5b20 e73d 7f55 92bc 6dec dc3c 5a31 6b3d
00000020: d475 623d 4398 01bd 5b0f 7ebb e764 12be
00000030: 844f 533e 3bfc 1abd 13ce 893c acda 213c
00000040: e09b b93b ea87 313b 3231 163d 290d 073e
00000050: 1c15 1abe dc09 8f3c ee29 1dbd ab37 cabc
00000060: e3fb 4dbb 8c85 4abb 506c e1bc f2c5 4a3c
00000070: d61b 58be 2e2c 08be f7c6 fa3d 8d81 a63c
00000080: 5724 41bd 9424 5b3e 3764 d5bd d49b eebc
00000090: f0bc 853a 9e6f 153e ed8c 9cbb 9aaa e93a
000000a0: 2420 013e d8ab 90ba 3801 e93c 8301 b9bd
000000b0: 57db 5dbc a0dd 2fbd 065c 273e ecbc d6b9
000000c0: 7fe2 7cbe caa7 1d3c d375 243c a58d bebc
000000d0: b412 413e 7e7e e03a 44c9 303e cf60 643c
000000e0: 6606 47be 7e4f d1bc e8ca 983d 2b65 a5bc
000000f0: f333 09bc 4ccf cabd 011e 03be 7d6f 49bd
0.0075259404 -0.16064088 -0.089904845 0.12188586 0.11285468 -0.017863033 0.026968205 0.057420112
0.05528815 -0.03163935 -0.0038766477 -0.14296304 0.20635802 -0.037838202 0.016821897 0.009878796
0.0056643337 0.0027089068 0.03666801 0.13188614 -0.15047115 0.017460756 -0.038370065 -0.024684748
-0.0031430654 -0.0030902354 -0.027517468 0.012376295 -0.21104369 -0.13298103 0.12244981 0.020325447
-0.047153797 0.21400672 -0.10419505 -0.029127039 0.0010203402 0.1459336 -0.004777542 0.0017827332
0.12609917 -0.0011037542 0.028442964 -0.090334915 -0.013541064 -0.042935967 0.16343698 -0.00040958019
-0.24695776 0.009622524 0.010037857 -0.0232609 0.18854791 0.0017127541 0.17264277 0.013939097
-0.19436035 -0.0255506 0.07460576 -0.020189842 -0.008374202 -0.0990282 -0.12804414 -0.04917859

arith.constant1 f4 [64, 128]
00000000: da16 073e 3cda adbd 3005 c83d fff2 13be
00000010: 9248 ac3d cf94 e4bd 393a cf3d d800 893c
00000020: cd75 54bd e133 e9bd c191 853d 7db7 21be
00000030: 16d3 ab3d e2de ecbc 70a3 13be 4434 933c
00000040: 6453 f43c cd34 c7bc 180d 5ebe 148b b8bd
00000050: 1f9f 453d bd9c c93d f1f9 a4bd ece5 09bb
00000060: a55b 813d ad15 6d3d d501 95bd 271a 57bd
00000070: 55dd b93b bbfb 7e3d 7ad3 3bbd 484d c3bd
00000080: 8b2d 43be fa9a 25be e811 503d a45e 1abd
00000090: 358d 17be 7b6d a3bd 5c6a e33d 68fa bc3d
000000a0: 264e 2ebe 4337 30be 8920 34be 0431 03be
000000b0: 9c90 29be 6ce7 ad3d 6ebe ac3c 0326 4f3d
000000c0: 3676 0cbe 5922 983d f4c6 1abe 15a4 443d
000000d0: 248b 1bbe 1071 4dbe 8908 e7bc 298d 60be
000000e0: 89a5 8a3c f7e5 dfbd 93ec 05bd d4c5 e43c
000000f0: 83c4 48bd d765 23be 2543 cabd aea4 05be
00000100: 9344 d0bd 1f36 043e b845 1abd 309f cd3d
00000110: 69b7 84bd 8e9d cfbd 5d37 b73d a995 acbd
00000120: a0b3 ee3c 146b c53d 6f6e 633b e064 893d
00000130: e4a1 1cbe bdb7 d93c 303f f9bd 2cbc 613d
00000140: cb1c 263e 4e8f 47bd 8612 e43d 497d ddbd
00000150: 08c6 67be 7201 15be 57b7 9dbc c10e 8b3d
00000160: c2b2 5c3c 5649 fa3d 64dc 8a3d 2fdf debd
00000170: 2183 d0bb a66e 823c aca5 bc3d 87b9 533d
00000180: acd6 043e 90c2 3fbe 92b7 f6bd 328f cc3b
00000190: fe0b 2ebe 163b 46be abec 06bc c8ce bfbc
000001a0: ae5a 6d3c e4af 29be 242d 79bd 3106 763d
000001b0: ebcc abbd b0e9 48bd 97f7 21be 3efb c2bd
000001c0: df68 86bd 34fd 9ebd 103d 38bc 0634 5b3d
000001d0: 17ee 4fbe 2781 e9bd af1a 323d 485e 153e
000001e0: ff89 153e 65ee c7bd 64d1 26bd ad6c 74bd
000001f0: 1351 163d efbe c9bc a95b 45be 5354 ecbc
00000200: 8829 823d a0f1 943d 38cc 273d 588f aabd
00000210: df9d d0be 69ee e43d 63c2 7dbe 2685 f8bb
00000220: e11b 743e 3fb4 b43d 44c6 e3bd 88e6 c9bd
00000230: 4608 8e3d 9cd6 a33e f149 d5be 8bb7 803e
00000240: defc 893d 1783 9ebd b6ae d8bd b7a5 3e3d
00000250: 2c60 99be 0359 22be 17b0 77be ceec c0bd
00000260: 6de3 783e d69b e93d 39d3 b4bd 3458 db3c
00000270: 28cb 7b3e 341b ac3d ddbc d6be acaf fdbe
00000280: b98b 06be 2f28 f1ba 2c0f 4b3d 70ce 93bc
00000290: 09cb d3bd de76 df3c 6cec fdbb e633 f2bc
000002a0: c271 243c a8ea 13be 99e6 07bf 541c eb3d
000002b0: aba6 3bbd 53d0 aabc 0051 50bc 33a4 b2bd
000002c0: 8d78 4abe a9a2 cdbd 7332 6e3d a9b5 a2bd
000002d0: bf83 3ebe 3381 21be 3881 333e 1453 533d
000002e0: 4f73 eabd 27bc f13d bbbc ccbd 2701 933e
000002f0: 06bf 1dbe be08 cf3d d8a1 fdbd 3cdf 0fbe
00000300: 5aa5 713e e52d c53d 30dd 043e da6c 10bf
00000310: ee74 f23c c181 9d3e 1028 95be 94d6 163e
00000320: ba43 063e cfae 4ebe 9ba6 103d 8390 563d
00000330: 2f50 3ebe 8faf cabe 8a3f bebd b476 3fbd
00000340: 63b1 953e beba 29be 898e a7be 50d0 c93c
00000350: 3db4 0d3e 818a 45bd 236c b03d 68d8 e6be
00000360: d1fc e53c 3ffb 2a3e c36d aabd 3ee9 cbbd
00000370: 86cf c0be a118 883e a8c5 b8be c90e 913e
00000380: e8fa a4bd 3cd8 ec3e a761 f73d 7e3e 0a3c
00000390: 98fd d4be c3f8 c1be f5a4 3d3e ef7b 82bd
000003a0: 8b4f a2bd 8a2c 8b3d b665 193e 7491 7a3d
000003b0: 2bbc 5fbe a9e0 9bbe 2d7f 2ebe 329a e6bd
000003c0: 0417 c7bd bb2e 2dbe 50e6 93bc 0002 34bd
000003d0: 42a9 efbc d680 fb3c 36dc 2b3d 99ba fabc
000003e0: caff 14be 4c80 93be beba acbb fc74 dabe
000003f0: 3407 743b 3528 b53d 584a 333e 5c19 35bd
0.13192311 -0.084888905 0.097666144 -0.14448164 0.08412279 -0.111611955 0.10118527 0.016724035
-0.051870156 -0.11386848 0.06521941 -0.15792651 0.08389871 -0.028914873 -0.14417815 0.017969258
0.02982492 -0.02431717 -0.21684682 -0.09010902 0.048247453 0.098443486 -0.08055485 -0.0021041585
0.06316308 0.057882 -0.0727574 -0.052515175 0.005672137 0.062251788 -0.045855977 -0.095362246
-0.19060342 -0.161724 0.050798327 -0.037687913 -0.1479996 -0.07979866 0.11104271 0.09227449
-0.17021999 -0.1720858 -0.17590536 -0.12811667 -0.1655907 0.08491406 0.021086898 0.05057336
-0.13716969 0.07428426 -0.15114957 0.048008043 -0.15189797 -0.20062661 -0.028202312 -0.21928848
0.016924636 -0.10932534 -0.032696318 0.027926363 -0.049015533 -0.15956818 -0.09876088 -0.13051102
-0.101693295 0.1291127 -0.037664145 0.10040128 -0.06480295 -0.10137473 0.089461066 -0.08426983
0.029138386 0.09639564 0.0034703275 0.067086935 -0.15296131 0.026576871 -0.12170255 0.055111095
0.16221921 -0.04872065 0.111363456 -0.10814912 -0.22634137 -0.14551333 -0.019252462 0.067899235
0.013470354 0.12221019 0.067803174 -0.10882413 -0.006363288 0.015921902 0.09211287 0.051690605
0.12972516 -0.18726563 -0.12046732 0.006242656 -0.16996762 -0.19358477 -0.008235137 -0.02341403
0.014486952 -0.16571003 -0.060834065 0.0600645 -0.083886944 -0.049050987 -0.15817104 -0.09520577
-0.06562971 -0.077631384 -0.011245027 0.05351641 -0.20305668 -0.11401587 0.04348248 0.14586747
0.14603423 -0.09762267 -0.040727034 -0.059673954 0.036698412 -0.024627177 -0.19273247 -0.028848803
0.06355578 0.07272649 0.040966243 -0.08328122 -0.40745446 0.11178286 -0.24781184 -0.007584232
0.2383876 0.08823442 -0.111218005 -0.098584235 0.06935172 0.3199967 -0.41657975 0.25140032
0.06737684 -0.07739847 -0.105801985 0.046544757 -0.29956186 -0.15854268 -0.24188267 -0.09420167
0.24305506 0.114066765 -0.0882935 0.026775457 0.24589217 0.08403626 -0.41940966 -0.4954809
-0.13139237 -0.0018398816 0.049575016 -0.018042773 -0.1034146 0.02727836 -0.007749131 -0.029565763
0.010036888 -0.14444983 -0.5308624 0.114800125 -0.045813244 -0.02085129 -0.012714624 -0.08722725
-0.19772549 -0.100407906 0.05815358 -0.07944805 -0.18604945 -0.15771942 0.17529762 0.0515929
-0.114477746 0.11803465 -0.09996935 0.28711817 -0.15404901 0.10109089 -0.12384385 -0.14050001
0.23598233 0.09627894 0.12975001 -0.56416094 0.029596772 0.30763057 -0.29132128 0.14730293
0.13111773 -0.20183872 0.035315137 0.05238391 -0.18585275 -0.39587066 -0.09289463 -0.046744063
0.29236898 -0.16575143 -0.32725933 0.024635464 0.13838287 -0.04822779 0.086143754 -0.4508698
0.028074654 0.16697405 -0.08321717 -0.09956597 -0.37658328 0.2658129 -0.360883 0.28331593
-0.08055669 0.46258724 0.120791726 0.008437751 -0.41599727 -0.37885103 0.18519957 -0.06371295
-0.07925328 0.067956045 0.14980206 0.06117387 -0.21849124 -0.3044484 -0.17040701 -0.11259879
-0.09721187 -0.16912358 -0.018054157 -0.04394722 -0.029255513 0.030701082 0.041958056 -0.030606555
-0.14550701 -0.2880882 -0.005271285 -0.42667377 0.0037235739 0.088455595 0.17508829 -0.044213638

sequential_1/dense_1_2/BiasAdd/ReadVariableOp f4 [64]
00000000: 051c fbbd 0e89 cdbc 84b7 293e 0518 c8be
00000010: 009b 41be 2f83 8fbd 1418 8bbd 2b36 55be
00000020: 145f babd 03de bcbd ac09 02be 7627 263e
00000030: b8cf d8bd 11d7 b5bd 9080 16be efcb d5bd
00000040: 5e89 83bd 3e72 84bd 56b8 06be 8025 07be
00000050: 77ee 593e 8caa 32be bef5 d7bd 34d5 f2bd
00000060: 8194 aabd ad0e 06be 29ee 1bbe cdba 3dbe
00000070: 62e4 9f3e 9fe9 843e 2b27 fdbd b360 3abe
00000080: 5504 2b3e c823 adbe a98e 303e d84b a8bd
00000090: 6bea a5bc 8768 cbbd b975 67bd e57a 42be
000000a0: 5f22 cfbd 746a 58bd f79c 99bd fcce 71be
000000b0: 81ce fcbd 6ee5 a4bd 6f90 cabd be52 d4bd
000000c0: 9558 3d3e cfad 86be 5d64 bebd ae8d bfbd
000000d0: 8e98 72bd f64b b0bc fa22 0cbe 2f69 ecbd
000000e0: 4e45 663e 40cc d9bd 48b7 54bd b253 17be
000000f0: cd6a 8b3d 2e94 523e 84a4 b53d 3629 ae3d
-0.12261204 -0.025089767 0.16573912 -0.39080825 -0.18906784 -0.07007443 -0.06791702 -0.20821445
-0.09100166 -0.09222033 -0.12699002 0.1622599 -0.10586494 -0.08878911 -0.1469748 -0.10439288
-0.06422685 -0.064671025 -0.13156256 -0.13197899 0.21282373 -0.17447871 -0.105449185 -0.118570715
-0.08329106 -0.13091536 -0.1522757 -0.1852829 0.3122893 0.2595949 -0.12360986 -0.1820095
0.16700871 -0.3381636 0.1724192 -0.08217591 -0.02025338 -0.099320464 -0.056508753 -0.18992193
-0.10113978 -0.052835897 -0.07500642 -0.23614115 -0.12344075 -0.08051573 -0.0989083 -0.10367344
0.18490823 -0.2630448 -0.092964865 -0.09353195 -0.05922752 -0.021520596 -0.13685217 -0.115435
0.22487375 -0.10634661 -0.051932603 -0.14778021 0.0680748 0.20564339 0.088692695 0.08503954

sequential_1/dense_1/BiasAdd/ReadVariableOp f4 [128]
00000000: 02ea a0bd 6e98 83b9 a426 3cbd 5978 7a3e
00000010: a37a 7ebd 2975 5abe c88a 91be 5ce7 89be
00000020: fc80 99be 8844 3abe 5c9b 0dbd 7019 8ebe
00000030: 621b 92be a2b8 b63e 3df8 8fbe 98aa 233d
00000040: 8c13 c5b9 bb1b 98be f93a c7be 426a 45be
00000050: 91dd f7be 6d9c 27bd 1eea 2cbe 8896 b1bc
00000060: 39ee 0fbe 8bf1 4fbe ed24 03be a267 a0bc
00000070: 691d 9fbe 7167 e9bd 1e25 3fbf 3206 a8bd
00000080: df03 1abd a2cd bbbd 0000 0000 e6f6 94be
00000090: 7882 27be 38c5 90bd 57d1 febd 3118 6ebe
000000a0: d573 02be b651 f5be b9f1 62be 4fad c7be
000000b0: 8179 a5be e48a 03bd 6ce3 debd 2b34 82be
000000c0: 1e1c 87bd 4056 f1bd c57a a8be f9bc bdbe
000000d0: ad3c 01bf da71 18bd 9f4e c7bd 65d0 07bb
000000e0: 623a 25be 9f8b 433e d310 64bd 4aeb e13d
000000f0: 3b7e 0cbf 8c4f d5bd d2a3 88bd 2200 40bd
00000100: 66c6 cdbe 6ad7 a6bc 4f2f 45bd aed5 88be
00000110: 5cf5 49bd 4041 583e fb7f 84bd c67c 55be
00000120: 09c1 13be a23b 2ebc 28f5 33be 2cfa 44bd
00000130: dcae 28be fe6d f7be 00d6 47be 0000 0000
00000140: 82f2 1a3e eaa0 0fbe 3c86 81be 7218 2dbe
00000150: 9d4b acb9 4c76 b0bd 322f a0be edc9 f93d
00000160: 0799 f7bd c16e a3bd 6405 b2bd f830 53be
00000170: 7865 f8bd eb62 bc3e 4bc0 acbb 830d 65bd
00000180: 2edb a53e a6df b7be 700d 65be 11b6 51be
00000190: 1c6d aabe 7391 08be a623 2dbf c04f 1cbe
000001a0: 440a 20be e114 f4be 75f5 76bc caed b1bd
000001b0: fcd3 77bd f80c 3fbe 1dcc f6b9 332d a8bd
000001c0: 7b89 05bc f615 5cbe 0000 0000 a336 dbbd
000001d0: 3b42 c0bc b77b 053e bb4e eebd fc7b 9cbd
000001e0: 4126 b3bc 0b68 b0bd 0358 72be d573 38be
000001f0: 9c49 203e 19e5 acbc 42f1 a2bd 8b41 08be
-0.078571334 -0.00025099836 -0.045935288 0.24459971 -0.062128674 -0.21333756 -0.28426194 -0.26934326
-0.2998122 -0.18190205 -0.03457199 -0.27753782 -0.28536516 0.3568774 -0.28119078 0.039957613
-0.00037589332 -0.29708657 -0.3891218 -0.19278815 -0.4841123 -0.040920664 -0.16886184 -0.021678224
-0.14055718 -0.20306985 -0.12807055 -0.019580666 -0.31077126 -0.11396683 -0.7466601 -0.08204307
-0.037601348 -0.09170081 0.0 -0.2909462 -0.16358364 -0.070688665 -0.12442272 -0.23251416
-0.12739499 -0.47913903 -0.22162522 -0.3899941 -0.32319263 -0.03211488 -0.10883221 -0.25430426
-0.0659716 -0.11784029 -0.32906166 -0.37058237 -0.5048321 -0.037217952 -0.09731793 -0.0020723578
-0.16135553 0.1909623 -0.055680107 0.11031206 -0.5488011 -0.10415563 -0.06671871 -0.046875127
-0.40190428 -0.02036639 -0.04814082 -0.26725525 -0.04930626 0.21118641 -0.06469723 -0.20848379
-0.14429106 -0.010634335 -0.17573988 -0.048090145 -0.16472954 -0.48326105 -0.19515228 0.0
0.15131572 -0.14026228 -0.25297725 -0.16903856 -0.00032862733 -0.08616313 -0.31286007 0.121967174
-0.120897345 -0.07980109 -0.086924344 -0.20624149 -0.12128729 0.36794218 -0.0052719465 -0.05592109
0.32393783 -0.35912818 -0.22368407 -0.20479609 -0.3328637 -0.13336734 -0.6763252 -0.15264797
-0.15628916 -0.4767218 -0.01507317 -0.08687933 -0.0605049 -0.18657291 -0.00047072853 -0.08211746
-0.008150454 -0.21492752 0.0 -0.107037805 -0.023469081 0.13035475 -0.116361104 -0.07640836
-0.021868827 -0.086135946 -0.23666386 -0.18012936 0.1565308 -0.021105336 -0.079561725 -0.13306253

sequential_1/dense_1/MatMul f4 [128, 5]
00000000: 58f4 fcbd 3100 9dbd 6e0c 9a3d ad59 a8bb
00000010: e877 3fbe 486d d8bd 6b15 bebd ce31 ffbc
00000020: 7d0b 99bb d72e a7bd 0e7a 25be f31b debd
00000030: 06f0 183d 5b8c b9bc 0379 c7bd 47bb 22bd
00000040: f003 8b3d 6fe0 58bf 9fe1 9dbe 966f 67bf
00000050: a851 a8be 7c79 5b3d f57e 00bf 9150 a9be
00000060: de32 13bf 2153 d03d a1a3 a1bd 8569 a3ba
00000070: ad54 b7be e7c0 e8be 5ea2 653e de49 73bd
00000080: 9c89 70be 4b1a 4dbd 9428 32bf 5638 4e3d
00000090: dfd0 89be a1af e8bd c683 40bd c5e8 4aba
000000a0: 6549 efbe d896 3c3d 3118 063e b278 e3be
000000b0: e50f b23e 92de 6bbe 6822 41bd 2cdd 313e
000000c0: 47e0 deb8 7af5 3dbe 1f38 6cbb cbb8 2dbe
000000d0: d4f7 d83b a13b a5bd fa93 b13c bcd4 16bf
000000e0: 951a 03bf db20 c2bd 45e5 de3d e6e7 66be
000000f0: 5d90 853e 8365 643d 84d6 14bf 44da 623c
00000100: 1a7d 89bf abb4 a5bd 8809 a1bd 4bdc b4be
00000110: 9c67 c7be 4d35 d53e 4d41 993e 9dbd 04bd
00000120: 2a7b 21bd 86ed 853a 99cc 8fbf 821a 97be
00000130: 1aec 053c 4381 fa3e ffb7 6ebe 4fba d8be
00000140: ecff 9bbc 5b54 13be b87c 68be d973 58be
00000150: 08a3 dcbd 5bd5 0abe 07d6 c9bc 3ac6 033e
00000160: 8d08 34bd 5e03 233e bdd8 993e 361c e73c
00000170: ea5e ab3e 34cf f6bc 19a9 61be 2de1 51bd
00000180: 7bf0 15bc b68d 14be e0df ec3c 44b1 0f3c
00000190: 194d 613e 74df aebb a8ab 4c3e cd34 9abe
000001a0: 529b 0ebf 2420 85be 94d9 89bd 2b76 56bd
000001b0: 524d 913b 34cd 52be 6328 fe3c f117 8abe
000001c0: d9a8 26bd 8241 c8bc a35c a8be ca57 dcba
000001d0: f2f8 09bf 6f98 f43e df4b 20bf f389 313e
000001e0: 0e9e 943d eaa8 35bb 3180 d83b 8594 2fbf
000001f0: 294c 3e3f f1bd 1bbe e7e1 f93c 7ca7 bb3e
00000200: b1c5 9bbd ae8f 413f 57df 38be dcfc 5cbd
00000210: 3d92 2abd d1a8 9b3c cb55 1cbe 5843 b1bd
00000220: 5269 01bb 87f2 d8be 0d0c 3d3b 1629 a8be
00000230: bd8c e53d 40ca 40bf 73ed d5be 2011 0d3d
00000240: 69fc b03e 6102 693c d5f5 c2bd d367 a1bd
00000250: ef00 0eba 6717 1a3d 6488 743e 752a 033d
00000260: 2ea7 20bd b3eb 84bc c9ec 04bf 8061 48bc
00000270: 2949 27be 48aa 9f3e a89b 53bf ad0a f73e
00000280: 89ea b93e 9b29 a3bd 699a 81be e536 df3d
00000290: d2e3 75bf 2ccb 83be 8d22 193b 054f 69be
000002a0: c5e1 b6bd f88e 733d 4ef5 97bd c048 babd
000002b0: 807b 46bc c0e7 2abd 4626 a7bd 0c6a b7be
000002c0: 6363 84be 8bd1 68be 5f96 253e cb35 1bbf
000002d0: 74bf 9ebe f34b e63d 4d0f 03bf 8e87 06bf
000002e0: cba2 7dbd df17 a1be 2804 f1bd 9549 8d3c
000002f0: 9537 e83b 7ad6 49be 7f0c 1fbe e514 eebd
00000300: 42aa 0cbe bd52 e43b 4b2a 953d 48b3 8bbe
00000310: 429c bf3c 4dfa 0d3d d9e7 30be 5292 ffbd
00000320: f432 75bd b279 3ebe 4fd6 e9be 5dd4 cdbd
00000330: 474b fe3d c844 6d3e 457a cb3b c7cb 1b3e
00000340: 7822 a8be f2a3 67bf b75d 05be 8568 193e
00000350: e4e6 033f d896 6abe 28f4 44bd 2e4e cebe
00000360: 3448 993c ebb3 41bd 853c c7be 261a f93e
00000370: 31f2 bb3d 3250 c6bd 3e4b 29be f74d 69bd
00000380: de94 43bf cec9 673b a3fa babe aa28 aa3e
00000390: 8a30 20bf 588e 653e b414 9bbe a760 5cbe
000003a0: 0e87 573d 8f1d 003c f34f c9bd c254 3cbe
000003b0: cc47 85bd 4669 813e a8dc 46be 3371 0cbe
000003c0: 0e8e 41be db81 dd3b 21cd 6fbd 843a 1cbe
000003d0: 5037 d8bd edcc 26be 481d 7b3b 8857 df3c
000003e0: 057a abbd 5477 703d d438 db3d 38bd e9bc
000003f0: d2f5 74be 78a4 5ebe 9292 0bbf 007c cd3e
-0.12351292 -0.07666052 0.07521902 -0.0051376433 -0.18698084 -0.10567719 -0.09281429 -0.031151678
-0.004670559 -0.08163231 -0.16159841 -0.10845175 0.03733828 -0.022649935 -0.09739878 -0.039729383
0.067878604 -0.8471746 -0.30836198 -0.9040464 -0.328748 0.053582653 -0.5019372 -0.3306928
-0.5749949 0.101721056 -0.07892538 -0.001246736 -0.3580679 -0.45459673 0.2242522 -0.059396617
-0.23489994 -0.050073903 -0.6959317 0.050346695 -0.26917168 -0.113616236 -0.04700067 -0.0007740374
-0.46735683 0.046042293 0.13095166 -0.4442802 0.34777752 -0.23034123 -0.047151953 0.17369527
-0.0001062756 -0.18550673 -0.0036044193 -0.16965024 0.0066213403 -0.08068014 0.021677006 -0.58918357
-0.51212436 -0.09478923 0.108835734 -0.225494 0.26086703 0.05576087 -0.58139825 0.013845984
-1.0741303 -0.080911 -0.07863146 -0.3532432 -0.38946235 0.41642228 0.29932633 -0.03240739
-0.0394241 0.0010217882 -1.1234313 -0.2951241 0.008173967 0.48926744 -0.23312376 -0.42329642
-0.019042931 -0.14387648 -0.22703826 -0.21137942 -0.10773283 -0.13557951 -0.024638189 0.12868586
-0.043953467 0.15919253 0.3004817 0.028211694 0.3347085 -0.030128099 -0.22037162 -0.051240135
-0.009151573 -0.14507183 0.028915346 0.008770291 0.22002067 -0.0053366963 0.19987357 -0.3011841
-0.5570575 -0.26001084 -0.06730953 -0.052358788 0.004434266 -0.20586091 0.031025117 -0.2697139
-0.04068837 -0.024445299 -0.32883176 -0.0016810831 -0.53895485 0.47772548 -0.6261577 0.1733778
0.07256709 -0.0027719089 0.0066070785 -0.68586 0.7433496 -0.15209176 0.030503226 0.36651218
-0.07606066 0.7560986 -0.18053947 -0.053952083 -0.04164337 0.019001396 -0.15267102 -0.08655423
-0.0019746614 -0.42372534 0.0028846294 -0.32843846 0.11208484 -0.7530861 -0.41782722 0.03444016
0.34567574 0.014221759 -0.09519545 -0.07881131 -0.0005417009 0.037619974 0.23880154 0.032022912
-0.039221935 -0.016225671 -0.51923805 -0.012230277 -0.16336502 0.31184602 -0.8265939 0.48250332
0.3631175 -0.0796692 -0.25313118 0.10899142 -0.9605075 -0.25740945 0.002336654 -0.2278405
-0.08929781 0.059462517 -0.07419835 -0.09095907 -0.012114406 -0.04172492 -0.08161597 -0.35823095
-0.25857076 -0.22736184 0.16170643 -0.60628957 -0.31005442 0.11244955 -0.5119522 -0.5255059
-0.06192283 -0.31463525 -0.11768371 0.017247 0.007086704 -0.19710723 -0.1553211 -0.11625079
-0.13736823 0.006967871 0.07283457 -0.27285218 0.02338994 0.034662534 -0.17275943 -0.1247908
-0.059863046 -0.1860111 -0.45671317 -0.10050271 0.12416702 0.23170769 0.006209644 0.15214454
-0.32838798 -0.90484536 -0.1302403 0.14981277 0.51524186 -0.22909105 -0.048084408 -0.4029402
0.018711187 -0.047290724 -0.3891336 0.48652762 0.09177054 -0.09683265 -0.16532609 -0.05695912
-0.7639903 0.0035368088 -0.36519346 0.3323415 -0.62574065 0.22417581 -0.30289233 -0.21521245
0.052619033 0.007819547 -0.09829702 -0.18391708 -0.06507835 0.2527563 -0.19420111 -0.13715057
-0.18901846 0.0067598647 -0.058545236 -0.15256697 -0.10557425 -0.1628911 0.0038317014 0.027263418
-0.08372883 0.05870755 0.107041985 -0.02853261 -0.23921898 -0.21742427 -0.54520524 0.40133667
